Assets/Models/TCNAE_1_gaze.onnx (onnx, 379537 bytes, 15 tensors)

fc_enc.weight f4 [10, 2752]
000000 19 ba 28 bd 59 ad 0c 3c 20 51 fa bc 19 8a 95 bc
       -0.0411931 0.008586251 -0.030556262 -0.018254327
000010 b0 43 82 bc 06 7c 45 3c 8a 3f 0f 3d aa c9 8c 3c
       -0.015901417 0.012053495 0.034972705 0.017186005
000020 ae 82 44 bd 72 07 73 bc 75 f9 aa bd b9 01 81 bd
       -0.04797619 -0.014833318 -0.083483614 -0.06299157
000030 62 f1 f3 bc d9 1d ff bb 96 8c b6 bc 71 70 22 bd
       -0.029778186 -0.0077855405 -0.022283833 -0.039658014
000040 77 e9 bc bc 5f 5a c0 3b a2 6e af 3c 02 8e bc bb
       -0.023060543 0.005870148 0.021415059 -0.0057542333
000050 39 50 64 bc 49 cb ae bc 79 6a aa 3c 0d da 2c bd
       -0.013935142 -0.021337168 0.020802723 -0.042200137
000060 74 4d bb 3c 55 4c a2 bc 68 80 5e bc f3 63 c6 3a
       0.022864081 -0.019811789 -0.013580419 0.0015135988
000070 ee e9 f6 b9 d5 8a 86 3c d7 b2 5b 3c 43 6e 5c 3c
       -0.00047095068 0.016423622 0.013409338 0.013454023
000080 bf 99 25 bc d0 1b 8a bb 97 b0 2c ba 61 0e f1 bb
       -0.010107457 -0.0042147413 -0.0006587593 -0.0073564504
000090 2d c0 ff 3c 42 62 49 3c 1a 24 a6 3c b6 d6 53 bb
       0.031219566 0.012291493 0.020280886 -0.0032324023
0000a0 5a 8f 88 3c 1b 52 30 bb a3 fd 84 bc c9 db 9b 3d
       0.016669918 -0.0026904407 -0.016234225 0.0761028
0000b0 92 f2 b6 bc 3f c2 d9 3c 2d 3b f4 3c 1c f4 c3 bc
       -0.022332463 0.026581882 0.029813373 -0.023920111
0000c0 1c 8c 52 bc 29 0e ea 3c 20 66 2b bc 3d c6 ed 3c
       -0.0128507875 0.028571205 -0.01046136 0.029025191
0000d0 58 1b 3a 3d 6b d6 0c bd 1e fa c1 bc 8e 71 27 3c
       0.045436233 -0.034384172 -0.023678835 0.010219945
0000e0 12 62 11 bc 2b 8d c3 bc 7d 1d d0 3b c3 e2 a3 bc
       -0.008873479 -0.023871025 0.0063511715 -0.02000559
0000f0 ec 07 63 3c 31 b2 87 3b 60 1d 35 3c 79 7f ed ba
       0.013856869 0.004141115 0.011054367 -0.0018119655
000100 14 06 ab bc a8 55 62 bc aa 57 73 bc 48 d9 9d 3c
       -0.020876922 -0.013814367 -0.014852444 0.019268647
000110 07 12 89 3c fd e1 e4 3b 79 20 54 3c 63 c9 ea 3a
       0.016732229 0.0069849477 0.012947195 0.0017912801
000120 55 62 82 3c bb 6b 10 bc 4b 72 59 bb ba 62 ee 3c
       0.015916029 -0.008814747 -0.0033179696 0.02909981
000130 45 23 20 3c 1f 8c 84 3c f9 86 e1 3c 30 9b f2 3b
       0.009774034 0.016180096 0.02753018 0.0074037537
000140 59 95 bc bc b0 55 0e 3d 33 59 33 3a 73 e0 13 3c
       -0.023020433 0.034749687 0.00068416 0.009025681
000150 72 8d 33 3a 47 5a 26 3d 51 74 c2 bc c0 08 3e 3d
       0.0006849385 0.04061344 -0.023737105 0.046395063
000160 0c 34 82 b9 73 ce 39 3c 42 34 00 bc 41 d5 e6 bc
       -0.0002483431 0.011340725 -0.007824959 -0.02817786
000170 fa a9 61 bc a3 98 e1 3c 98 d6 13 bc 70 00 29 bc
       -0.013773436 0.027538603 -0.009023331 -0.010315046
000180 f2 09 d0 3b c9 25 9a bb 99 f5 8e 39 0f bd 44 3d
       0.006348842 -0.0047042114 0.00027267335 0.048031863
000190 36 53 94 3b 16 55 a2 bb c5 25 04 3a e1 1d 8e 3c
       0.004526521 -0.0049539907 0.00050410285 0.017348232
0001a0 a3 f9 52 bb 37 ca 0f bd b9 a2 45 3b 30 ed 09 bd
       -0.0032192252 -0.035104956 0.0030156805 -0.033673465
0001b0 f6 93 76 bc c4 0c 2f b9 f2 3e 60 bb 48 43 bc 3a
       -0.015049925 -0.00016694056 -0.0034217206 0.0014363313
0001c0 2e cf 43 3c 21 13 10 bc 40 93 c3 bc 0d 1c 07 3d
       0.011951251 -0.008793623 -0.023873925 0.032985736
0001d0 34 ba 34 bd 8e b4 91 3a 2b f2 09 3d 16 0f 54 bc
       -0.04412289 0.0011116432 0.033678215 -0.01294305
0001e0 6e 1b 8d ba 20 5d 93 bb ff fc 89 bc b7 ee 65 bc
       -0.0010765621 -0.0044971853 -0.01684427 -0.014033965
0001f0 c9 1b 9b bc 8e c9 f9 bc 02 b0 ae bc 37 48 32 bc
       -0.018934147 -0.030491617 -0.021324161 -0.010881475
000200 93 a7 97 3c 5b fe 34 3c 12 f2 5f b9 a8 34 13 3d
       0.018512523 0.011046971 -0.00021357115 0.03593889
000210 3e df a1 bc 7c c3 a2 3c d0 94 ea 3c 1c a3 8d ba
       -0.01975977 0.019868605 0.028635412 -0.0010806057
000220 b2 77 49 3c bf ae 7d ba 76 96 9f bc 8d bf f3 bc
       0.012296604 -0.0009677223 -0.019480925 -0.029754424
000230 86 3c a8 bb 33 f1 82 3c f9 bb 23 3c 08 b9 44 3b
       -0.005134168 0.015984153 0.009993547 0.0030017514
000240 ea 87 f9 bc ea f6 d0 bc eb 19 1d bd 12 ad 0f bd
       -0.030460317 -0.025508363 -0.038354795 -0.035077162
000250 d4 a9 f9 ba 9d 96 b0 bc 9d ca da 3c fc 5b 77 3c
       -0.0019047805 -0.021556193 0.026707942 0.015097614
000260 07 e1 7a bc 96 98 ec bc 47 8f 1d bb e0 62 ad bc
       -0.01531244 -0.028881352 -0.0024041699 -0.021165311
000270 0f d9 38 bc 0e 99 94 bc 6a 89 3d bc c2 31 6f bb
       -0.01128222 -0.018139388 -0.011568407 -0.0036498164
000280 e9 1e 82 3c c9 76 02 bc 06 37 21 bc eb 73 25 3c
       0.01588388 -0.007962891 -0.009839779 0.010098438
000290 3c bd bc ba 8d ab c1 3b 5f 46 e7 bb 63 8d aa 3c
       -0.0014399658 0.005910343 -0.0070579494 0.020819372
0002a0 5c 32 87 3c 8a 58 01 bd 89 1a 15 3d 05 97 b9 bc
       0.016503505 -0.031578578 0.03640226 -0.02265502
0002b0 dd ab 9d bc 78 55 a9 3b f0 21 80 3c 2d 68 0e 3c
       -0.01924699 0.0051676594 0.015641183 0.00869183
0002c0 b7 8e 07 bd 92 27 7c bb 05 ec 04 3b 0a 81 f2 ba
       -0.033095088 -0.0038475734 0.002028228 -0.0018501591
0002d0 78 5f 95 bc 8d 33 64 bc d1 8a 12 bc c1 4d cc bc
       -0.018234 -0.013928306 -0.008944229 -0.02493942
0002e0 0e a5 c5 bc b1 af e3 bc 2b 39 f7 bc 75 6b c4 bc
       -0.024126556 -0.027793737 -0.030178627 -0.02397702
0002f0 aa ff db 3b eb 30 c1 bc 86 ce b0 3c 0f 61 20 bd
       0.006713827 -0.023582896 0.021582853 -0.039155062
000300 00 dd cd bc 00 fd 23 bc 39 37 4c 3c 9c 73 07 3c
       -0.025129795 -0.01000905 0.012464338 0.0082673095
000310 91 59 ce 3c 46 0f 73 3c ef 43 f3 3b b4 d6 16 bc
       0.025189193 0.014835184 0.00742387 -0.009206463
000320 16 9b f5 3b 19 bd 85 3c 6b 1d 07 3c 9e 7e a2 3b
       0.0074952943 0.01632552 0.00824676 0.0049589416
000330 83 b4 8e 3c 5f c7 cf bc cb a5 dd 3c 70 18 99 3b
       0.01742006 -0.025363622 0.027056595 0.0046721026
000340 ce fe a8 bb 5a de c1 bc d5 37 86 3c 4f 85 77 b9
       -0.005157328 -0.023665596 0.016384045 -0.00023605417
000350 58 59 12 3c 4f 31 5d 3a dd 85 b4 3c d2 eb cf 3b
       0.008932434 0.00084378285 0.022036487 0.0063452506
000360 d9 3b 93 ba 86 f3 8a 3c 08 3d 17 3c c0 d2 47 bc
       -0.0011233046 0.016961824 0.00923086 -0.012196243
000370 27 ef 1b bb b6 2c 79 3c c8 64 f5 b8 6e c1 eb bc
       -0.002379367 0.015208414 -0.00011701282 -0.028778758
000380 65 c9 df 3c 98 06 9b 3b f1 0e af 3c da dd 33 bd
       0.027317712 0.0047310106 0.02136943 -0.043912746
000390 48 7f b6 3a c6 b0 96 3c 02 94 4b 3c fa 99 4e bc
       0.0013923431 0.018394839 0.0124254245 -0.012609953
0003a0 b0 08 e6 3c ad 9c 0e 3d f9 24 9b 39 72 d7 de 3c
       0.028080314 0.034817386 0.0002959145 0.027202342
0003b0 90 4f c4 3c b2 25 39 bc 82 b5 e1 3b 33 8a 95 3c
       0.02396372 -0.011300491 0.0068880925 0.018254375
0003c0 39 ac 9d 3b 6c 3f da 3c 9a 52 1e bc 39 40 22 bc
       0.0048117903 0.02664157 -0.009663248 -0.009903007
0003d0 ed a2 4d bc 39 08 17 3c a4 1f cc bc 2d 91 56 bb
       -0.012551052 0.009218269 -0.024917431 -0.003274034
0003e0 8a ef 0f bd dd 93 2b 3b d6 b4 a2 3b 5b db 34 bc
       -0.03514055 0.0026180663 0.004965405 -0.011038627
0003f0 d3 00 b5 3b 5e 95 84 bb 99 28 88 ba 6b 0b 33 3c
       0.00552378 -0.0040461263 -0.0010388076 0.010928015

fc_enc.bias f4 [10]
000000 8e 34 c6 3a 41 1a 3a bc 29 af 47 bc 89 ca 52 bc
       0.0015121864 -0.0113587985 -0.0121877575 -0.012865671
000010 59 62 8d 3c 6f 0b f0 3b 18 cd b7 bb 3a 22 25 3b
       0.01725881 0.0073255817 -0.005609166 0.0025197403
000020 c5 f3 a6 bc 5f fe ea 3c
       -0.02037991 0.028685747

fc_dec.weight f4 [2752, 10]
000000 b4 92 8e 3e 0e 3a 10 bd f9 65 0d be 5e 60 d4 bd
       0.278463 -0.035211615 -0.1380843 -0.10369943
000010 50 c9 ad 3d 1b 04 6a 3e 68 28 48 be e1 d7 1a 3e
       0.08485663 0.22853129 -0.19546664 0.15121414
000020 63 5c e6 bc a6 71 8b 3e 6b 11 0b be 2d cf 54 be
       -0.028120225 0.27235144 -0.13580863 -0.20782156
000030 b5 79 7f 3e 84 13 8c 3e c3 af 9c be ce c3 d4 bd
       0.24948771 0.2735864 -0.30602846 -0.10388909
000040 8d 2f 63 3c b9 e2 00 be 6c 91 f2 bd 7b 3e 45 be
       0.013866317 -0.12586488 -0.11844143 -0.19262116
000050 a8 3d 17 be 0e 17 f6 bd 64 eb 84 3c dd 49 7c be
       -0.14769614 -0.12016116 0.016225524 -0.24637552
000060 31 3b 7b bd f6 80 c2 3d 2a 9e 41 3e 9c bc c1 bd
       -0.061335746 0.094972536 0.18907991 -0.094598025
000070 c4 39 ad 3d 62 e4 62 3e 61 76 98 be b1 9c 00 be
       0.084582835 0.22157434 -0.29777816 -0.12559773
000080 99 47 84 bd c5 cb b9 bd de 5c 2d 3e ba 8c 84 3e
       -0.06458969 -0.09072069 0.16929957 0.25888616
000090 59 d9 96 3e b5 9e 09 be 3a 57 10 3e fd 06 8b be
       0.29462698 -0.13439448 0.14095774 -0.2715377
0000a0 0e 37 ca 3d bf 83 b3 3e 99 ff c6 3e fc f1 c7 3d
       0.09873782 0.35061452 0.3886688 0.09762952
0000b0 53 b9 02 be 94 24 b7 3d 8b 0d 28 3e 0e 47 a2 3d
       -0.12766008 0.089425236 0.16411416 0.07923709
0000c0 31 03 32 be 84 86 b2 be 5d fa 8b be 10 ca 9f 3d
       -0.1738403 -0.34868252 -0.2733945 0.07802212
0000d0 c2 e0 94 bd d9 71 fd 3c 64 d2 9e 3d ef 23 93 3e
       -0.07269432 0.030938076 0.077549726 0.28738353
0000e0 33 ac b8 bd e7 28 6d 3e 90 93 57 be 51 89 5d be
       -0.090172194 0.23160134 -0.21052384 -0.21634413
0000f0 00 8f 09 be 96 c3 12 3e e4 ad 1c be 88 5e 61 3e
       -0.13433456 0.14332423 -0.15300709 0.22008717
000100 2b 43 7e be c7 fe a8 be bb 9c 03 bd 32 84 7b bd
       -0.2483031 -0.3300688 -0.03213189 -0.06140537
000110 6a ae 5e be eb 47 91 3e bc 33 04 3e a6 d3 91 be
       -0.21746221 0.28375182 0.1291036 -0.28481787
000120 f3 f7 6f be b8 49 ca bd 66 99 56 be ad 22 57 3e
       -0.23434429 -0.09877342 -0.20956954 0.21009322
000130 5a 2b 67 bd 4f 82 6e 3d 0f a1 31 3c 6c 55 9d 3d
       -0.056437828 0.05822974 0.010841622 0.076823086
000140 28 8f 0d 3e f0 d0 81 be 2b fe c3 3d ea 1e 20 be
       0.13824141 -0.2535472 0.09569963 -0.15636793
000150 99 0d 91 be fc 28 0f be ad c5 8b 3c 49 5f f2 3c
       -0.28330687 -0.13980478 0.017062033 0.029586451
000160 f7 bf 47 3e 07 e4 20 3e 47 83 8d 3e a3 f0 74 be
       0.19506823 0.15711986 0.2763922 -0.2391992
000170 9c 57 15 3e 58 77 33 3e 38 04 57 be 23 06 07 3e
       0.14584202 0.17525995 -0.20997703 0.13185935
000180 8f ac 98 3e 04 04 29 3e 18 2c 82 bd d3 73 09 bd
       0.29819152 0.16505438 -0.063560665 -0.033557724
000190 c0 87 56 3e dc 27 33 3e 4b 24 8d 3e 7a 8a ad 3d
       0.20950222 0.17495674 0.27566752 0.08473678
0001a0 32 0c 69 3e ec 19 c1 bd 14 3a 60 3e 41 33 76 3e
       0.22758558 -0.09428772 0.21897155 0.2404299
0001b0 74 1d a1 bd 84 9e 82 3e 35 a1 46 3e 95 8a 43 be
       -0.07866946 0.25511563 0.19397433 -0.19095834
0001c0 98 fa 88 be bf b6 9d 3e 11 99 84 3e b8 52 5b be
       -0.26753688 0.30803487 0.2589803 -0.21418273
0001d0 19 ac 9c be b1 77 6b 3e 0b 72 19 3e 14 7a 49 3e
       -0.3060005 0.22994877 0.1498491 0.19675475
0001e0 31 cb 4f be 73 29 b6 bd 78 42 64 be ab 55 85 be
       -0.20292355 -0.088946246 -0.22290981 -0.26041922
0001f0 b0 61 e8 3c 13 67 97 3e 01 03 b2 3e 58 c8 19 be
       0.028366894 0.29570827 0.34767917 -0.15017831
000200 e7 e9 2d be f6 79 aa be 7d f4 2c 3e 79 0c 4e bd
       -0.16983758 -0.33296174 0.1689014 -0.050304864
000210 f1 07 f3 bc 81 7e 99 3d 5e 78 94 3e a8 66 5e bd
       -0.029666873 0.07494832 0.28998083 -0.05429712
000220 a8 53 0d be 99 5b 99 bd a7 dc 8f 3e a4 4c 8f 3e
       -0.13801444 -0.07488174 0.28098032 0.2798816
000230 7b c8 8f be 8f 5c 28 bd 52 6a 18 bd 75 9d ea 3b
       -0.28082642 -0.041103896 -0.03721077 0.0071598836
000240 e9 5d b1 3e 02 3c ba bd df 4c ee 3d 68 3b 82 3e
       0.3464196 -0.09093477 0.11635756 0.25435948
000250 3e a5 89 be 15 60 06 3d 22 20 b1 3d 7f 84 e4 3c
       -0.26883882 0.032806475 0.08648707 0.02789521
000260 1c bb 6c 3d cf 34 b1 3b e5 18 6f 3e d7 7f 6c 3e
       0.05779563 0.0054079066 0.2334934 0.23095642
000270 e0 ac 81 3d bb eb 5f be a3 03 60 bd 24 41 1c 3e
       0.063318014 -0.21867268 -0.05469097 0.15259224
000280 24 3c 81 3e a1 3d 9c 3e 5e 47 5b be 34 95 26 3d
       0.25241196 0.3051577 -0.21413943 0.040669635
000290 98 c7 9a be 0c b0 ae 3d bd f6 d3 3d c2 87 80 3e
       -0.30230403 0.08529672 0.10349796 0.25103575
0002a0 69 3f fb 3d 72 b4 75 3e 2c 44 38 3b 6d b9 30 3e
       0.12267954 0.23994616 0.0028116805 0.17258234
0002b0 d6 4b 1d be 12 81 73 3e dc 61 b5 bd fb e5 b2 bd
       -0.1536096 0.23779705 -0.08856556 -0.087352715
0002c0 03 fa 54 be d6 f7 97 bd b0 06 46 be be c2 59 3d
       -0.20798497 -0.07420318 -0.19338489 0.053164236
0002d0 7b c5 5a 3e 2d 71 bd bd ee 92 83 be a5 59 67 3d
       0.21364395 -0.09250102 -0.25698036 0.056481976
0002e0 a6 48 86 be 20 8a b8 3e 37 21 2a be 10 9d 94 3e
       -0.262273 0.3604288 -0.16614233 0.2902608
0002f0 e7 f8 41 bd 19 59 58 3e b2 dd 84 3e 1e 9f 57 bc
       -0.047356512 0.21127738 0.2595039 -0.013160495
000300 86 66 b5 3b ff 7d 3e 3e 0a 6c 15 3e 5a 45 63 3e
       0.0055359034 0.18602751 0.14591995 0.22194424
000310 2f b6 80 bd 92 95 80 3e 83 f9 06 3e 4c eb 55 3e
       -0.06284749 0.25114113 0.13181119 0.2089054
000320 d8 85 00 bc dd 05 b4 3d ea 40 71 3d e7 88 33 be
       -0.007844411 0.08790181 0.058899797 -0.17532693
000330 49 6d 6c 3e bc 6b 84 3e 01 62 17 be 76 cf b7 3d
       0.23088564 0.25863445 -0.1478348 0.08975117
000340 07 5b d5 3e 2c d9 7d 3e 5b 9a a1 be 7b 04 8e 3e
       0.4167101 0.24789876 -0.31563076 0.27737793
000350 da aa c9 3d 54 6c ff 3d 71 6e 26 be 5a c4 0e be
       0.098470405 0.12471834 -0.16253068 -0.1394209
000360 37 bc 22 be a6 0a 07 bd cf 67 cc bd a9 35 5d be
       -0.15892111 -0.03296914 -0.099807374 -0.21602501
000370 cf 34 3e 3e 47 3d 1d bb 60 ce 75 be 16 a4 fd 3d
       0.18574832 -0.0023992823 -0.24004507 0.123848125
000380 ed 72 de 3d d0 cb 77 3e c6 2a 86 be b4 2d 5f be
       0.10861764 0.24198842 -0.2620451 -0.21794778
000390 1e dc 3e 3e 7b e5 39 be 29 8e 55 be ce c6 87 bc
       0.18638656 -0.18153946 -0.20855011 -0.01657429
0003a0 69 e7 53 be 80 38 3c 3e 02 53 90 bb 63 cd 33 be
       -0.20693745 0.18380928 -0.0044044266 -0.17558818
0003b0 45 2e 23 bd 7b 8d a5 bb 4b c7 d1 3d 01 3b 35 3d
       -0.039839048 -0.005052266 0.1024309 0.044245724
0003c0 a3 7d 6b be 4a 9a 80 be 31 5a d7 bd a0 98 16 be
       -0.22997145 -0.25117713 -0.105152495 -0.1470666
0003d0 91 58 1b 3e bc a5 e2 3d c1 98 50 bd 6d 41 a7 be
       0.15170504 0.110667676 -0.050926927 -0.32667103
0003e0 8e 55 09 3e 0a 03 13 3e c0 5f 86 3c 58 ab 20 bd
       0.13411543 0.14356628 0.016403079 -0.039225906
0003f0 33 04 d2 3d 6d 92 cd bc c6 10 7d 3e d8 3d 24 3d
       0.10254707 -0.025094235 0.2471343 0.04009804

fc_dec.bias f4 [2752]
000000 f3 52 67 3e df 1d 3d 3c 4b 08 56 be ce eb 68 3d
       0.22590236 0.011542766 -0.20901601 0.056865506
000010 3c 77 14 bd 32 3b f9 3d d1 0a 79 be da 39 4f be
       -0.036246523 0.12169494 -0.24320532 -0.20236912
000020 9b e1 4c 3d 92 46 c6 3d a2 8b 89 3e b7 3a 91 3e
       0.05001984 0.09681429 0.26864344 0.28365108
000030 31 14 9a 3d e5 d6 96 3e 55 0e 0e 3e 16 5c 98 3e
       0.075233825 0.29460827 0.13872655 0.29757756
000040 a1 f6 8f be a8 34 04 be c7 44 70 3e d4 00 c0 bd
       -0.2811785 -0.12910712 0.23463736 -0.09375158
000050 f8 d3 94 3e 4e 66 67 3d 2e 38 26 3e 7d ef 28 be
       0.2906797 0.05649405 0.16232368 -0.16497608
000060 65 9d d9 bd 12 f2 23 3e 02 de b6 3d 6b bd 94 bd
       -0.10625724 0.16010311 0.089290634 -0.07262691
000070 3b d8 30 be 66 6a ae bc 4f fe 5a be 57 4a 51 3e
       -0.17269985 -0.02129097 -0.21386074 0.20438515
000080 ec c5 ef 3d 97 23 5e 3e ef 6c 59 be f5 b9 8d 3c
       0.117076725 0.21693264 -0.21232961 0.017300585
000090 de ac 0d 3d a9 41 87 3e f6 76 b8 bc 7f 8c 75 3e
       0.034588687 0.26417282 -0.022517662 0.23979376
0000a0 18 dc a9 be 60 4d a8 be 44 55 3a 3e a0 a4 d4 3d
       -0.3317573 -0.32871532 0.18196589 0.10382962
0000b0 8e 4f 1f 3e 68 f8 0c 3e 54 47 26 be 0b bd 39 3e
       0.15557691 0.13766634 -0.16238147 0.1813852
0000c0 29 8d a5 be 49 57 17 3a af ea 71 be 70 e5 b6 3d
       -0.3233426 0.00057731994 -0.23624681 0.089304805
0000d0 4c ac 80 be fb 5f d5 3d d9 3e 78 3e 38 24 b9 ba
       -0.25131452 0.104186974 0.24242724 -0.0014125174
0000e0 ce 1a 65 3e 8c a9 3a be 03 3e 06 3e b9 6b c2 bd
       0.22373506 -0.1822874 0.13109593 -0.09493203
0000f0 0f 20 64 be 68 88 72 be b7 56 81 3e 31 e3 6a 3e
       -0.22277854 -0.23684847 0.2526147 0.22938229
000100 fb 21 81 3e 4e c9 90 be 69 71 82 3e d8 a7 a9 3d
       0.25221238 -0.28278583 0.2547715 0.08283967
000110 74 eb 98 3c 70 cc 9f be 3d fa 65 be 2c 47 2e 3d
       0.01866696 -0.3121066 -0.2245874 0.042548344
000120 e3 72 9b be a0 9b bb bd d4 41 33 3e dd 1d 90 3e
       -0.3036109 -0.091605425 0.1750558 0.28147784
000130 94 d2 31 3e ee d5 3d 3e 68 af aa 3d e9 16 28 bd
       0.17365485 0.18538639 0.08334237 -0.041037474
000140 97 56 32 be 2d 99 5b 3e 4b 57 36 3e fa ca 28 3e
       -0.17415844 0.2144515 0.17806737 0.1648368
000150 6b 88 1c be 17 48 23 3e 8e 56 9f 3e 5d f5 e8 bd
       -0.15286414 0.15945469 0.31120723 -0.11374924
000160 a5 93 85 3d 32 11 aa 3e 2b 24 bd 3d 55 a5 6f bd
       0.065223016 0.33216244 0.09235414 -0.058507282
000170 80 45 85 bd cd 3d 1e be 11 b0 81 3c 36 24 34 3e
       -0.06507397 -0.15453263 0.015831025 0.17591938
000180 4b 3a fa 3b b4 a3 99 be fd 57 9c bd e1 a0 45 bd
       0.0076363436 -0.30007708 -0.0763397 -0.04824913
000190 f7 35 6d 3c 21 ba 9a be 85 9f 71 3d f6 1b 96 3e
       0.014478198 -0.3022013 0.05899002 0.29318208
0001a0 02 b2 4c 3e d1 b8 0b 3e f1 85 b2 3e c1 d9 f0 bd
       0.1998978 0.1364472 0.34867814 -0.11760283
0001b0 2d 0c 95 bd 57 37 ba 3c 39 0e 86 3d 79 f8 8f bc
       -0.07277713 0.022731466 0.065456815 -0.017574536
0001c0 1b 1c 64 be f9 fd 12 3e f0 de bf bd 9c 7c 91 be
       -0.22276346 0.14354695 -0.09368694 -0.28415382
0001d0 19 c3 aa bc 4c 90 b0 3e 9d 52 af 3c 5f 47 4d be
       -0.020844983 0.3448509 0.021401698 -0.20046757
0001e0 95 e3 9b be 7e c8 a1 3b df d9 9f 3e ba 39 00 be
       -0.3044707 0.0049372306 0.3122091 -0.12522021
0001f0 d7 89 41 bd e4 49 60 be 8e eb f3 bc 2c 67 27 3d
       -0.047250595 -0.21903187 -0.029775407 0.040869877
000200 32 ac 82 3e 14 c0 4e bd 4e 63 42 3c fb 64 11 3c
       0.25522 -0.05047615 0.011864496 0.008874173
000210 48 80 09 3e 75 13 62 be 9f 6a 11 be 71 38 36 b9
       0.13427842 -0.22077735 -0.14200829 -0.00017377899
000220 c7 2c 06 bd 03 d4 6c be f1 81 54 3e 4c 3a b5 bd
       -0.032757547 -0.23127751 0.20752694 -0.0884901
000230 68 9c 30 be 7c 08 d8 bd 65 35 24 3e 84 8f 9e 3d
       -0.17247164 -0.10548493 0.16035993 0.07742217
000240 b8 6d dd 3d bd 9d b1 bd 32 c4 62 3e f9 b7 46 bd
       0.10811943 -0.08672664 0.22145155 -0.048515294
000250 bd 02 07 3d df 81 af be b6 7d 95 be b5 30 fe 3c
       0.032961596 -0.3427877 -0.29197472 0.031029085
000260 10 52 2f 3e 6e 09 94 bc 46 6f 00 be 94 2f e7 bd
       0.17121148 -0.018070903 -0.12542447 -0.11288372
000270 d2 66 22 bd c2 8a 96 3d cc ae 82 3e 04 91 58 be
       -0.03964884 0.07350685 0.25523984 -0.21149069
000280 b1 f1 12 3e b6 57 97 be 5f 1c 85 3e ff 95 77 be
       0.1435001 -0.29559106 0.25998208 -0.24178313
000290 03 77 91 be bc 19 c4 3d 2a d2 86 3e 7f 40 17 be
       -0.2841111 0.09575221 0.26332217 -0.14770697
0002a0 e1 70 18 be 55 dc 1e be a1 53 c2 bd 01 92 0a 3e
       -0.1488681 -0.15513737 -0.09488607 0.13532259
0002b0 86 da 2f 3e 7b bf 3a be b9 60 a4 3d 0e f0 d6 3d
       0.17173204 -0.18237107 0.08026261 0.104950055
0002c0 d0 fd 4a bd 01 d3 05 be 6c 5b 24 be d5 17 03 be
       -0.04955846 -0.13068773 -0.160505 -0.1280206
0002d0 91 21 1d 3e ae 23 80 bd a5 8f b6 bc b5 5a 83 3e
       0.15344836 -0.06256805 -0.022285292 0.2565514
0002e0 ba 9f 4b be 1f e5 11 3e c6 96 95 be 84 5e c0 3d
       -0.1988515 0.14247559 -0.29216594 0.093930274
0002f0 f0 b0 82 bd db 1d 52 3e ce 0f 9b bc 70 aa 97 3e
       -0.063814044 0.20519201 -0.018928435 0.2962222
000300 20 96 20 be 14 17 1f bd 8c 58 71 bd 18 c5 3b bb
       -0.15682268 -0.03884037 -0.058922336 -0.0028651413
000310 e2 7e df bb 78 3b 00 be db 56 fe bd 04 47 8d 3d
       -0.0068205455 -0.12522686 -0.1241891 0.06898311
000320 e8 53 95 be 97 66 ac be 3d d6 a8 3d e1 4e 93 3e
       -0.29165578 -0.3367202 0.08243988 0.28771117
000330 3d 3c 6a be 50 d5 06 3e e0 b8 e1 3c 73 0c 0f 3e
       -0.22874542 0.1316731 0.027553976 0.13969593
000340 d3 ea 8f be aa 08 87 3e 20 1d 48 bc 96 44 39 be
       -0.28108844 0.26373798 -0.012213975 -0.1809257
000350 c3 77 6b 3e ff a0 fd 3d 73 f0 4a 3e 9d 3d 2e bd
       0.22994904 0.12384223 0.19818287 -0.042539228
000360 a5 97 87 3e ce 1a 91 3e 41 92 6d be 99 74 20 3d
       0.26482883 0.28340763 -0.23200323 0.039173696
000370 1b 50 7b bd 57 bd 32 3e fb e4 9e 3e c7 9a 5f 3e
       -0.06135569 0.1745504 0.31034073 0.21836387
000380 3f 90 06 be da 70 21 3e 65 2d 80 3e d4 7a 4e be
       -0.13140963 0.15765706 0.25034633 -0.20164043
000390 2f b7 59 3e f5 62 d6 bd 8e 7e 53 be 94 c3 1c be
       0.21261285 -0.10468093 -0.20653746 -0.15308982
0003a0 3c 7a b6 3d 2d f5 7d 3e 5f ba b9 bd fb 5e 88 3e
       0.08910033 0.24800558 -0.090687506 0.26634964
0003b0 09 ab 02 3e 10 29 ed 3d 3e 73 82 3e 5e ed 5d 3e
       0.12760557 0.11580098 0.25478548 0.2167258
0003c0 2a f2 4b be ff d9 d0 bc c2 51 33 be 03 3a 94 3e
       -0.19916597 -0.025494574 -0.17511657 0.2895051
0003d0 b6 a6 54 be a7 02 8b 3c 8c 03 9d bd 8b 5e 5c bd
       -0.2076672 0.016969038 -0.07666692 -0.0538011
0003e0 86 44 56 be ba a9 6a 3d 31 61 87 be 77 da 99 be
       -0.20924577 0.05729077 -0.2644134 -0.30049488
0003f0 7d 2c ed 3d 87 bd 02 3e f9 f1 8d 3e b4 5a 95 3d
       0.11580751 0.12767611 0.27723673 0.07292691

onnx::Conv_91 f4 [16, 1, 7]
000000 53 da 96 bf c5 52 d1 be b1 cd 88 3f 16 a4 34 3f
       -1.1785377 -0.4088346 1.0687772 0.70562875
000010 44 1b ec bf 66 ee a5 be ee e4 81 bf 5d a2 02 40
       -1.8445821 -0.32408446 -1.0147989 2.0411599
000020 7d ee e7 bd 05 45 a4 3f 0c 8b 14 be f4 f6 84 bf
       -0.11324785 1.2833563 -0.14506167 -1.0387864
000030 01 5a 18 3f ea 92 93 bc 7f f2 7d 3f 23 47 25 bf
       0.59512335 -0.01801439 0.99198145 -0.6456167
000040 ff 01 9f bf 41 88 ad 3e cd 10 d6 3f 2c ce 4e 3f
       -1.2422484 0.33893016 1.6723877 0.80783343
000050 49 b7 33 3f 6e 2d 4c bf 96 cd 39 bf 85 1e 84 bf
       0.70201546 -0.7975682 -0.72579324 -1.0321814
000060 83 d6 54 bf ea e1 25 bf 80 6e 2b 3f 38 e7 9b bb
       -0.8313982 -0.6479784 0.66965485 -0.004757788
000070 f3 e5 1c 3e 2d f0 a2 3f aa 98 91 bf 6d 0a 05 bf
       0.15322094 1.2729546 -1.1374714 -0.51969033
000080 6a bc b6 bf dc ca ff bd 33 57 7f bf 91 83 89 3e
       -1.427625 -0.12489864 -0.9974243 0.2685819
000090 16 99 2e 3f a8 0c db 3e 06 df 81 3f c1 de b1 3f
       0.6820234 0.42783093 1.0146186 1.3896104
0000a0 5c c0 35 be 4b a6 31 be a6 48 df bf e2 75 05 bf
       -0.1774916 -0.17348592 -1.7444046 -0.52133
0000b0 fd 41 ad bd 21 52 2f bf 93 f6 ac 3c 5e 66 f2 3f
       -0.08459852 -0.68484694 0.02111367 1.893749
0000c0 bc 5e a4 3f fe 20 d1 3e 04 b5 51 3f 57 47 f7 3f
       1.2841411 0.40845484 0.8191683 1.9318646
0000d0 c4 86 ff 3e 10 96 2e bf 15 04 ba 3e 96 02 86 bf
       0.49907506 -0.6819773 0.3633124 -1.0469539
0000e0 f2 bf eb bf 32 9d 8e 3f 32 06 82 3f dc 83 e3 3f
       -1.8417952 1.1141722 1.0158141 1.7774615
0000f0 30 9c a2 bf e3 c5 e4 3e 96 88 bf bf cf 6a af 3e
       -1.2703915 0.44682226 -1.4963558 0.34261176
000100 9e 6d c2 3e bb 44 f4 3f d3 54 18 3f dc e2 8c be
       0.37974256 1.9083475 0.5950443 -0.2751683
000110 d3 a4 36 bb 56 18 ed 3e b5 f0 e7 bb 92 77 00 40
       -0.002786924 0.4630763 -0.007078255 2.007298
000120 65 77 16 bf 92 2e d1 bc d6 60 8d 3f 1c 4e 9f bf
       -0.5877593 -0.025534902 1.1045177 -1.2445712
000130 7a 28 b2 3f 7f 0c 99 bf 40 44 35 bf 00 98 03 3f
       1.3918602 -1.1956939 -0.70807266 0.5140381
000140 0a 9b 3f 3e 47 2b be be f0 ce 1e bf 8a f4 b8 bf
       0.18711486 -0.37142393 -0.6203451 -1.4449627
000150 63 db e6 3d 72 3f 01 40 4b 80 9b bf fc 5f ab bf
       0.112723134 2.0194974 -1.2148527 -1.3388667
000160 04 0c b8 3f e0 55 9f be 4e ec bc bf ad 89 48 bf
       1.4378667 -0.31120205 -1.4759614 -0.78335077
000170 65 78 e1 bf 15 af 8f 3e 25 9f ce bf 4c 1f a5 3f
       -1.7614866 0.28063264 -1.6142317 1.2900176
000180 57 db 84 3f c4 94 50 3f 0a 22 fa 3f d1 fc 2e bf
       1.0379437 0.81477 1.9541638 -0.6835452
000190 9d e3 6c bf 86 b7 df 3f 13 e7 23 3f 83 2e 9f bf
       -0.9253481 1.7477882 0.64024466 -1.2436069
0001a0 b9 fd b4 bf 79 6e 51 bf 07 30 89 bf d4 9b 84 bd
       -1.413993 -0.8180919 -1.0717782 -0.06475034
0001b0 bb 16 a1 bf 9a 4d a5 be e2 7f 52 bf 2a 7d 24 3f
       -1.2585062 -0.32285768 -0.82226384 0.64253485

onnx::Conv_92 f4 [16]
000000 14 ed 29 3f 3c 98 3c bf 79 a7 38 bf 21 47 51 3f
       0.6637738 -0.7366979 -0.72130543 0.8174916
000010 cf 15 2d 3f 16 a3 6f bf 9a 97 ce bc 12 ee 18 bf
       0.676114 -0.93608224 -0.025218774 -0.59738266
000020 5a 75 8e bb 3f e3 68 bf 7c b7 31 bf 88 78 48 3f
       -0.0043474855 -0.9097175 -0.694206 0.78308916
000030 7d f4 39 3e ba c0 92 3e 8a eb ac bc c0 cf 64 3f
       0.18159671 0.28662664 -0.021108408 0.893795

onnx::Conv_94 f4 [32, 16, 7]
000000 e1 69 b2 3d 98 0f 35 bd 9f fa 06 3e d4 35 19 be
       0.08711601 -0.044204324 0.13181542 -0.1496194
000010 15 e9 bf 3e 21 da 0c 3e e3 04 2b bd 75 2d e4 3d
       0.37482515 0.13755085 -0.041752707 0.11141483
000020 93 a9 6b 3e 2c 17 89 3e 94 ec 8f bd 06 c4 be 3e
       0.23013906 0.2677549 -0.070275456 0.3725893
000030 bf b8 3e be 56 35 f0 bd d2 54 ee bd 8c 54 bb be
       -0.18625163 -0.11728923 -0.11637272 -0.36587942
000040 7a 2f 6d bd 21 b3 39 be f2 de 85 3e f3 1e 34 be
       -0.057906605 -0.18134739 0.26146656 -0.17589931
000050 d8 8a ba 3e b3 b6 99 3e e8 b4 02 3e b9 89 0c be
       0.36434054 0.300222 0.12764323 -0.13724412
000060 56 b9 d7 bd 9b b9 48 bd 3e fe c4 3d 22 0e 84 bd
       -0.10533397 -0.049005132 0.09618805 -0.06448008
000070 9c aa ab bd a9 0e 02 3e 3e c2 2d be c5 6c 39 bd
       -0.083821505 0.12700905 -0.16968629 -0.045269746
000080 b8 ea 7f bd 16 4f 86 be 5f 65 0d bf a4 69 a8 be
       -0.062479705 -0.26232213 -0.55232805 -0.32893097
000090 7f 1d a2 be f7 62 9c 3d 67 e6 66 be fe b8 b5 3e
       -0.3166313 0.076360635 -0.22548829 0.354927
0000a0 cd b1 47 be d0 c3 5e be 16 76 4e be b1 0f 41 be
       -0.1950142 -0.21754384 -0.20162234 -0.18853642
0000b0 7a 3b 92 be 6a 2e 9d 3e 72 65 84 3d 3d 5c 94 3c
       -0.28561002 0.30699474 0.06464662 0.018110389
0000c0 56 14 26 3e f7 12 6f be 1e 2c a0 3e 0c fe 62 3d
       0.16218695 -0.23347078 0.3128366 0.05541806
0000d0 c4 b9 9c 3e b0 fc 9e 3e 22 df 13 be e6 c2 59 be
       0.30610478 0.3105216 -0.14440587 -0.21265754
0000e0 72 73 0b 3e 0d a9 68 3e 54 3c 86 3e 4a 4c 46 bd
       0.13618258 0.22720738 0.26217902 -0.0484126
0000f0 d9 cd 8a 3d 55 97 3a 3e 44 09 17 3e 2e 87 58 bd
       0.067775436 0.18221791 0.14749628 -0.052863292
000100 6f a4 32 3e c2 69 65 3e 55 c0 50 be 9d 8f 72 bd
       0.17445539 0.22403625 -0.20385869 -0.05921899
000110 20 f8 a3 3e 96 7a 74 3e 62 cb 94 bd 90 31 54 be
       0.32025242 0.23874888 -0.07265355 -0.20722032
000120 6d 1d 6d 3d 86 26 80 be 11 25 a7 bc ef c9 88 bc
       0.05788939 -0.2502939 -0.020403417 -0.016697852
000130 fc 5b 14 be 90 7d 92 3e de ab 40 3e c9 c4 05 3e
       -0.14488214 0.28611422 0.18815562 0.13063349
000140 4c fa ee bd ad eb 6d be f4 74 95 3d 17 3b 9c bd
       -0.11668834 -0.23234434 0.07297698 -0.07628458
000150 20 04 a2 be 29 ab b3 bb 5e f1 36 3e f5 20 e4 be
       -0.31643772 -0.0054830504 0.17865512 -0.44556394
000160 87 0a c3 3e f6 c5 8a be 13 5f 9c bd 8f 2c 46 3e
       0.3809397 -0.27104157 -0.076353215 0.19352935
000170 8a 25 e2 3d af 7f c1 3e 08 f3 57 3e 78 96 c7 3e
       0.11042316 0.37792727 0.21088803 0.38981986
000180 12 5d c3 3d d9 5d 36 3d e6 ba 47 be 67 67 06 3d
       0.09539236 0.044523094 -0.1950489 0.032813456
000190 07 b1 f7 bd 9a 27 54 be 86 77 3e 3e 94 7b 94 3e
       -0.12094312 -0.20718232 0.18600282 0.29000533
0001a0 d3 96 b9 3b f4 3f 86 bd 33 1a 97 be c6 8b a0 3e
       0.0056637316 -0.06555167 -0.29512176 0.3135664
0001b0 3f bb 91 be f9 a5 36 be ba 16 a5 3d ff 9d 7c 3e
       -0.2846317 -0.17836751 0.080609754 0.24669646
0001c0 9b 1d ec bc 40 6a eb bd 91 2b 59 bd 70 f7 54 3e
       -0.02882271 -0.11494875 -0.053020064 0.20797515
0001d0 9f f4 c6 3d d7 3e b7 bc 5f 83 4f bd a1 76 b6 3c
       0.097146265 -0.022368832 -0.050662395 0.022273364
0001e0 c1 6f 9d bc e5 43 24 3d 6f ee 97 3e be c1 1b bd
       -0.019218327 0.04010381 0.29674098 -0.038026564
0001f0 24 b2 54 be 98 ad 28 be 50 d6 d7 3d 65 c4 23 3e
       -0.2077108 -0.16472471 0.10538924 0.15992887
000200 1e 4f c0 3c b2 aa 12 3e ab 1d a3 bd 3e 96 ce bc
       0.023475226 0.14322928 -0.07964643 -0.025218125
000210 ab 16 0d 3e 19 fb dd bb 18 05 cf bd 97 ba 84 bd
       0.13778178 -0.006774318 -0.101083934 -0.06480902
000220 a1 c1 0c 3d 70 45 73 3e e3 5f 38 be a1 47 8b 3d
       0.034364346 0.23756957 -0.18005328 0.068007715
000230 7f 2f b1 be f1 2f 5c 3d 78 71 46 3d 93 f9 d9 bd
       -0.3460655 0.053756658 0.048448056 -0.10643306
000240 d0 fe 6d be 11 1f 1e 3e a1 e6 e3 3e 2d 7d 1e 3d
       -0.23241735 0.15441538 0.44511893 0.038693596
000250 f3 a0 62 bd eb e2 db bd 07 f3 0b 3e 29 8a 56 3b
       -0.055329274 -0.107366405 0.13666926 0.0032736158
000260 c8 b3 e4 bd 4c bc b1 bd b1 56 7b bc 22 53 0f bd
       -0.11167103 -0.08678493 -0.015340493 -0.03499139
000270 95 aa b4 bd d4 36 b6 3c 82 5b 2e 3b 32 ee 30 3d
       -0.088215984 0.022242941 0.0026604836 0.04319591
000280 f0 db 40 bd af 53 09 3e 9d 2f 1c bd 06 00 49 be
       -0.04708475 0.13410829 -0.038131345 -0.19628915
000290 d0 c6 71 3e 9a f9 08 3e a2 55 50 be 4f 0d 29 3e
       0.23610997 0.13376465 -0.20345166 0.16508983
0002a0 00 74 d0 3b 4a 50 b0 bd 00 ee 51 be 9b fd 07 be
       0.0063614845 -0.08609064 -0.20500946 -0.13280337
0002b0 8f c8 da bd c6 e8 e8 3d 0f 83 98 bd b3 02 27 3e
       -0.10682785 0.11372523 -0.074468724 0.16309623
0002c0 60 54 53 3e ad d6 b1 bd eb 0a 92 3e 0d 6f bc bc
       0.20637655 -0.08683524 0.28523955 -0.023002172
0002d0 2d ad 28 be ae e9 06 be 37 5a 32 be ce fa 1b 3e
       -0.16472311 -0.13175079 -0.17417227 0.15232393
0002e0 74 e7 a7 bd e6 e8 fa 3d 35 a2 2e 3d 53 78 5d be
       -0.08198443 0.12251453 0.04263516 -0.21627931
0002f0 17 32 c9 3c 7e b1 e9 3d 76 a2 0e be b8 51 3d be
       0.024560018 0.11410807 -0.13929161 -0.18488204
000300 58 d5 72 3e 0a b1 66 3d ac 9d 97 3e e3 e2 71 bd
       0.23714197 0.05632118 0.29612482 -0.059054267
000310 e3 91 a1 bd 67 9f 4c 3e d5 b0 40 3e 92 09 f2 3d
       -0.07889154 0.19982682 0.18817456 0.11818232
000320 05 ad 8a bd 13 a2 25 be e3 41 26 be 91 6f 48 bd
       -0.06771282 -0.16175108 -0.16236071 -0.048934523
000330 08 17 25 be d2 06 28 3e 29 d2 53 3e 7b 1b 9b bc
       -0.16122067 0.16408852 0.20685638 -0.018934002
000340 5d 20 bc bb 3a df 1a 3e 88 04 83 3e 33 df 3f 3e
       -0.0057411627 0.15124217 0.25589395 0.18737487
000350 d4 ae a5 3d 0f 2f 08 3e ff d6 2d 3e 29 dd 42 be
       0.080899864 0.13299201 0.16976546 -0.19029678
000360 a6 fa e9 bd f6 e6 51 3e 11 de e8 bc 43 49 42 bd
       -0.114247605 0.20498261 -0.028426202 -0.04743315
000370 cd ca 22 be 4a 19 89 be a1 a8 65 be e1 d3 6b bd
       -0.15897675 -0.26777107 -0.22427608 -0.05757511
000380 24 38 2f 3d c4 a3 9a bd 7c 4b ac 3d 1e d6 42 3d
       0.04277815 -0.07550767 0.08412835 0.04756748
000390 3d a7 3a be 43 2d f0 3d 18 64 b5 3c 39 8f 9b bd
       -0.18227859 0.11727383 0.022142455 -0.07595677
0003a0 88 7d 4e 3d a2 37 89 bb 46 0e fc 3d 03 ed 8b 3c
       0.050412685 -0.00418754 0.1230741 0.01708079
0003b0 5e 5c a1 3d 1f cd 8a 3d e4 31 fc 3d 7c f9 0e be
       0.07878946 0.06777405 0.123142034 -0.13962358
0003c0 4b fb a4 bd fd 92 31 3e f1 18 0d be a1 f9 77 bd
       -0.08055743 0.17341228 -0.13779046 -0.0605408
0003d0 66 70 13 bc e5 f3 6c bd a3 e3 2f be f1 ca e6 bd
       -0.008998966 -0.057849783 -0.1717668 -0.11269177
0003e0 5f 0d d8 bd 51 f9 ed bd 2c 0e b4 3d ec 98 26 bd
       -0.10549425 -0.11619819 0.087917656 -0.04067318
0003f0 61 55 ff 3c e6 a4 04 bd f0 7f 95 3d e0 8d e6 bd
       0.031168642 -0.032383822 0.07299793 -0.11257529

onnx::Conv_95 f4 [32]
000000 d2 d7 99 be fd 56 80 be e6 c3 f5 be 68 f9 10 bf
       -0.3004747 -0.25066367 -0.4800102 -0.56630564
000010 90 5e c2 3e fc fe 2c bf 40 e6 62 bf 91 ab 6f bf
       0.3796277 -0.67576575 -0.88632584 -0.93621165
000020 7d 21 25 bf 7c 1a 47 bf 40 5b 22 3c 99 f2 a9 bf
       -0.64504224 -0.77774787 0.009909451 -1.327716
000030 58 c5 58 bf d3 c2 8c be a5 d7 58 bf 5c f8 13 bf
       -0.8467612 -0.2749239 -0.8470405 -0.5780084
000040 01 34 86 3e 0e 0c 19 bf ba d6 17 3e aa fb 03 3f
       0.2621155 -0.5978402 0.14828005 0.51555884
000050 af 63 dc 3e 1c 0b 91 be f8 75 11 bf 00 28 88 be
       0.43044803 -0.28328788 -0.5682063 -0.26593018
000060 b4 35 cb 3e e6 66 07 bf 22 14 8e 3f 66 45 d0 bf
       0.3968941 -0.52891386 1.1099894 -1.6271179
000070 af b7 55 bf 08 a1 5b bf 90 b8 07 3e a6 92 65 bd
       -0.83483404 -0.8579259 0.13253999 -0.056048058

onnx::Conv_97 f4 [64, 32, 7]
000000 79 dd 56 3d f3 63 38 bd 2c 4f a6 bc 78 86 8f 3d
       0.052457307 -0.045017194 -0.020301424 0.0700807
000010 02 37 f9 bd 05 bc 33 bc 54 6b f3 3d 9c 09 92 bc
       -0.12168695 -0.01097012 0.118857056 -0.017826848
000020 19 60 f7 bd 7c 8a 37 bd cc 1f 40 bd e8 fc 19 3d
       -0.12078876 -0.044809803 -0.046905324 0.037594706
000030 8e 79 89 bc 31 c7 bb bd e6 3a 4e bc a9 a3 c9 bc
       -0.016781595 -0.09168852 -0.012587285 -0.024614172
000040 7f a8 50 3d c0 eb d3 3d f1 8a 7d 3d 0f 38 92 bd
       0.05094194 0.103477 0.061900083 -0.071395986
000050 da 40 59 3c d0 f6 f7 bd 34 34 62 bd 41 b7 93 bb
       0.013260091 -0.121076226 -0.055225566 -0.0045079296
000060 b1 93 db bd e9 22 1b 3d 3f 94 a2 3d c3 f8 8a 3d
       -0.10721529 0.03787509 0.07938432 0.06785729
000070 d9 81 92 3d 8d 3c 1e 3e 7c 33 81 3d 18 cb 19 bd
       0.07153673 0.15452786 0.06308648 -0.0375472
000080 fc b4 28 3d fb 82 bd 3d ae 90 4d 3c db b6 57 3d
       0.041188225 0.09253498 0.012546701 0.05266462
000090 bf 63 03 3d 3b 1c 47 3d 24 6a c2 3d 33 f7 99 bc
       0.032077547 0.048610907 0.09492901 -0.018794632
0000a0 c6 b2 58 3d 4a 5b 1b bd bc 03 e4 3d 62 aa 1d 3c
       0.052904867 -0.037928857 0.11133525 0.009623142
0000b0 07 c8 98 3d c6 d4 ae 3b 0a 59 c3 3c d9 b1 9c 3c
       0.07460027 0.005335423 0.023846168 0.019127773
0000c0 1f 89 15 be 74 85 0d 3e e9 f2 29 3d ee 5f bc 3d
       -0.14603089 0.1382044 0.041491423 0.09197985
0000d0 e7 3a ab 3c eb 11 0d 3c 9f 72 84 3c b4 b7 ad bd
       0.02090211 0.008610229 0.016167937 -0.08482304
0000e0 33 9a fa 3d 19 6a 94 3b 55 70 6c bb 30 15 fb 3c
       0.122364424 0.0045292494 -0.0036077697 0.030649751
0000f0 99 2b 86 3d c2 04 23 bd c4 57 35 be 51 a5 03 3d
       0.06551284 -0.03979946 -0.17709261 0.03214008
000100 14 8c df 3b 32 25 76 bd 58 58 d5 bd 46 b2 cc 3d
       0.0068221185 -0.060094066 -0.10417241 0.099949405
000110 7c 11 32 3e ac 43 96 3d 98 11 44 bd b5 12 87 3d
       0.17389482 0.07337126 -0.04786834 0.06595365
000120 fa 97 10 be 64 54 bd bd f7 87 10 bc 93 be 56 3d
       -0.14120474 -0.09244612 -0.008821479 0.05242784
000130 86 82 77 bc f0 27 4b 3e 0c f1 83 3d e3 4b d7 3d
       -0.015106803 0.19839454 0.064424604 0.10512521
000140 40 f1 11 3d e6 7b 18 3e c2 dc 13 bc 71 3b 40 3d
       0.035630465 0.14891014 -0.009024801 0.046931688
000150 f0 a6 00 3e 8c 07 1e 3e 98 57 1a 3d be 86 cf bb
       0.12563682 0.15432566 0.037681192 -0.006333201
000160 20 6d cf bb 61 ee 4c 3d de b4 d0 3d a7 b4 83 bd
       -0.0063301474 0.050032023 0.10190748 -0.06430941
000170 62 b1 ad 3d a1 e1 81 3d 71 a0 d3 bd 36 bb e0 bd
       0.08481099 0.063418634 -0.10333336 -0.10973208
000180 93 bd b5 bc 36 2a a5 bc b4 c9 47 bd 78 b1 bf bd
       -0.022185123 -0.02016173 -0.048776343 -0.09360021
000190 23 52 99 3c 21 e3 16 3d 76 a1 10 3e f3 13 d4 3b
       0.018715924 0.0368377 0.14124092 0.0064721047
0001a0 72 6b d1 bc 80 81 ca bd c3 77 dc bd 9b 4b 67 bc
       -0.02556393 -0.098879814 -0.1076503 -0.014117147
0001b0 f1 6b 94 3d 28 d3 5f bd 5e 18 50 3d 89 2c 3c bb
       0.07247151 -0.054644734 0.05080449 -0.0028713068
0001c0 9a e0 2f 3d de 2e 96 bb e2 11 be 3d 50 01 ae 3d
       0.042938806 -0.0045832237 0.092807546 0.08496344
0001d0 0d 6b b0 bd 79 4b a2 bb 99 40 13 3d dd 82 8c bd
       -0.08614168 -0.0049528447 0.035950277 -0.06860898
0001e0 43 8c 90 bd 19 2c 24 bd ab d8 79 bd 5e 81 7e 3d
       -0.07058003 -0.040081117 -0.060997646 0.062135093
0001f0 b6 77 ae 3d ad 36 01 3e 7f ac 93 bd ee bc 91 bd
       0.08518927 0.12618513 -0.072106354 -0.071161136
000200 51 f8 31 bc ea 47 23 bc ac eb c0 bd f6 05 82 bc
       -0.010862426 -0.009965876 -0.09419951 -0.015871983
000210 78 27 eb bc bd 05 c2 b9 0f d8 0a 3e 3f 55 8c 3d
       -0.028705344 -0.0003700684 0.13558982 0.06852197
000220 f7 f3 06 3d 93 8f 87 bd ee e6 21 3d a5 b1 eb bb
       0.032947507 -0.066191815 0.039526872 -0.0071928077
000230 45 a2 f4 bd 5f 3c f4 bc 5b ea 75 3c 2e 78 ea 3d
       -0.11945013 -0.029813943 0.015009488 0.11448704
000240 9f e2 70 bd d7 df 73 3d 32 d1 0a 3d ca 8b 5d 3d
       -0.058809873 0.059539642 0.03389091 0.05408839
000250 33 ee fc 3b cf c5 c7 3d 99 d1 d7 bc 55 59 03 bd
       0.0077188252 0.09754526 -0.026345061 -0.032067616
000260 ee f9 7f bd 0a 0e 01 3d 4f df 2e 3e 82 95 11 3c
       -0.06249421 0.03150753 0.17077373 0.008885743
000270 57 f1 0a 3e 4e be db bd 6e bb 7f bd 30 d7 76 bd
       0.13568626 -0.10729657 -0.062434606 -0.060263813
000280 b1 37 e3 bc 0c fb ea 3c 3a a4 e7 bd 03 ee ee 3d
       -0.027736517 0.028684162 -0.113106206 0.11666491
000290 f7 8b e3 bd 9d fd 85 3b 99 57 26 3d 07 dc b4 3d
       -0.111106806 0.004089071 0.040610883 0.088310294
0002a0 55 67 d5 3c 9b 21 23 3d 29 c1 65 3d 76 5d 1f bd
       0.02605025 0.03982697 0.056092415 -0.03890749
0002b0 3f 7e 65 bd e3 47 94 bd 56 b2 08 bd f4 ca e0 3d
       -0.0560286 -0.07240274 -0.0333732 0.1097621
0002c0 27 ff 4c bc 7c c4 74 3c 88 dc 18 3e bb a5 52 bb
       -0.012512005 0.014939424 0.14927876 -0.003214224
0002d0 eb ab 4b 3d 63 2b 1e 3e 69 25 12 3d 63 28 c0 bd
       0.0497245 0.15446238 0.03568021 -0.09382703
0002e0 f2 4d 8a bd 5f 6d 9a 3d 2f 64 18 bc 67 65 56 bd
       -0.06753148 0.07540392 -0.009301229 -0.0523428
0002f0 51 6d bb 3c 8b 30 f0 3d c8 41 a2 3d 65 c2 2d bc
       0.022879275 0.11728009 0.07922703 -0.010605429
000300 83 c8 8d 3d eb 2f 0e 3d aa 9f c4 3d 72 5e 2f 3d
       0.0692301 0.034713667 0.09600766 0.04281468
000310 41 49 c5 3d 67 79 82 3d ae 54 b5 3d 98 8f f8 3c
       0.09633113 0.06370812 0.08854042 0.030341908
000320 41 28 3b bd 3a c3 0f 3e b4 f3 c9 3d 11 ea 79 bd
       -0.045692686 0.14039317 0.09860936 -0.06101424
000330 2d 75 df bc 57 56 5f bd dc c3 98 3d e5 c4 ac bc
       -0.027277553 -0.0545257 0.07459232 -0.02108998
000340 bd 77 a1 bc b0 60 04 bd b2 9e ea 3d 5b 21 87 3d
       -0.019710416 -0.03231877 0.1145605 0.06598159
000350 2f 12 fe 3d 00 5e 91 bc 32 ed fa 3d 1b e2 74 3d
       0.12405812 -0.017745018 0.12252273 0.059785943
000360 94 80 27 3e 99 69 b6 3c 3f ea 5a 3d 51 cb 92 3d
       0.16357642 0.02226715 0.05344605 0.07167686
000370 a1 df a8 bd 01 78 68 3d 1c c5 07 bd bd b5 50 bd
       -0.08245779 0.05675507 -0.033146963 -0.05095457
000380 79 36 09 3d e0 f7 4a 3d 4c 86 b1 bb 88 00 01 3d
       0.033499215 0.0495528 -0.0054176208 0.031494647
000390 55 10 49 3d fb 68 e3 bd dc 96 eb bc 5a d5 5d bd
       0.04908784 -0.11104008 -0.028758459 -0.054158546
0003a0 8f 06 6c be be 24 45 3c b7 a1 37 3e c8 49 c0 bd
       -0.23049377 0.012032686 0.17932783 -0.09389073
0003b0 ec 05 1f 3d df 1a f2 3d 6e f1 e7 bd 31 c7 fa 3d
       0.038824007 0.118215315 -0.11325346 0.12245024
0003c0 c5 22 5f bc c6 93 04 3d 4c a6 bd bc 18 3a 27 be
       -0.01361913 0.03236749 -0.023150586 -0.16330755
0003d0 a6 85 bd 3d 77 ff 39 be 08 a7 03 be e9 65 cc bd
       0.09254007 -0.18163858 -0.12856686 -0.09980375
0003e0 2c 2d 3a 3e 39 4d fc bc 65 e9 d0 bd 28 f3 f5 bd
       0.18181294 -0.030798541 -0.102007665 -0.12009269
0003f0 d0 18 e8 3d d7 9a 91 3e 5e d8 06 bd 29 fb 25 be
       0.113328576 0.28438446 -0.032921188 -0.16209091

onnx::Conv_98 f4 [64]
000000 8a 24 63 bf 0e a1 8d 3d 44 d4 63 3d 20 03 4a 3c
       -0.8872763 0.06915484 0.055622354 0.012329847
000010 ed a6 66 3e 60 1a 90 3e 77 d7 88 be f1 a0 87 3e
       0.22524615 0.28145123 -0.26726887 0.26489976
000020 09 d4 c9 3e 07 97 37 bf 20 5b 62 3c 70 d3 9d 3e
       0.39419582 -0.71714824 0.013815671 0.30825377
000030 c5 a4 66 bf c2 a3 9b 3e dc b6 7e be 6a bc 39 3e
       -0.9009517 0.30398375 -0.24874443 0.1813828
000040 70 c7 08 3f a9 f7 84 3e 22 f7 3f bf b2 b4 18 bf
       0.5342932 0.259702 -0.7498647 -0.5965072
000050 a0 48 5b 3e d2 c2 ca be a2 68 8a be 48 52 34 be
       0.21414423 -0.3960176 -0.27032954 -0.17609513
000060 00 f7 19 3f 92 ac b5 3e 8b 63 33 bf 6b 3c 0b be
       0.6014252 0.35483223 -0.70073766 -0.13597266
000070 de 3c c6 bd d6 28 c3 3e 11 17 cb 3e 6e 7d c8 3e
       -0.09679578 0.38117093 0.39666036 0.39158195
000080 28 7b f7 3d 48 56 53 be ce b1 c1 be 7e 41 85 3d
       0.12084037 -0.20638382 -0.37830967 0.06506632
000090 88 6a 76 bc e2 9e f0 be ba e3 c8 be ba f2 03 be
       -0.0150400475 -0.46996218 -0.39236242 -0.12885562
0000a0 d9 44 c1 3d c6 bb 40 bd 46 32 f3 3e cd 27 0e bf
       0.0943696 -0.047054075 0.47499293 -0.5552948
0000b0 b4 c3 08 3d a4 3f b3 bd 4c d2 a8 bd d5 78 d9 3e
       0.033389762 -0.08752373 -0.08243236 0.42475
0000c0 69 d7 56 3e 99 2d b4 3e a2 2a d4 bc 34 34 db 3d
       0.2098061 0.35191038 -0.025899235 0.10703316
0000d0 7c cb f6 3d 48 5b ab 3d 36 ba 7d be 83 33 7c bd
       0.1205053 0.0836702 -0.24778065 -0.061572563
0000e0 98 35 cf 3e 3a c7 8b be d2 e4 25 bf 90 c2 25 be
       0.40470576 -0.27300435 -0.6480228 -0.16187501
0000f0 3e 78 50 be 44 84 20 bf e8 cf e6 bd fd 45 11 be
       -0.20358369 -0.6270182 -0.11270124 -0.14186855

onnx::Conv_100 f4 [32, 64, 7]
000000 a0 8a 3d 3d d4 c7 db 3c 37 c1 79 3c df 2d 5e 3d
       0.04627478 0.026828684 0.01524382 0.054242965
000010 7a 26 21 bc 0b 6c bb ba 04 51 ce 3c 6e c9 2c 3d
       -0.009835834 -0.0014299167 0.025185116 0.042184286
000020 dc 7e c5 bc 80 7d c0 bc 19 e8 fe 3b b2 2f c9 3c
       -0.024108343 -0.023497343 0.007779133 0.024558876
000030 e0 bb e5 3a 6b ab 4a 3a 2f b2 72 bd 38 0e 7a bd
       0.0017527305 0.0007731232 -0.05925196 -0.061048716
000040 fe 8f 40 bc 6b 03 9a ba cf 9a 34 3c 9e 6a 24 3d
       -0.01175308 -0.0011750286 0.011023237 0.04014074
000050 98 10 d3 3c 5a 42 b8 3d 9e 6b d0 bc d3 b5 b4 bb
       0.025764748 0.089970306 -0.02544194 -0.005514839
000060 a5 af 12 3d 54 09 60 3b 91 a3 18 bd f6 36 fb 3c
       0.03581204 0.0034185247 -0.037265364 0.030665856
000070 65 f7 19 3c 15 e7 55 bd 6a 1a 75 bd 12 ab b8 bd
       0.009397362 -0.05222233 -0.059839644 -0.09017004
000080 7c 88 ea bb 28 49 c4 ba f7 50 94 3d 12 a8 c0 bd
       -0.0071573835 -0.0014975416 0.07242005 -0.09407057
000090 ff 92 0f 3c 1a 17 0d bb ab ae a3 3b 3c bc 47 bc
       0.008763074 -0.0021528662 0.0049951873 -0.012190875
0000a0 75 d7 1c bd c1 11 f7 bc 62 69 e9 3b 13 b5 0a 3b
       -0.038291413 -0.030159833 0.0071231583 0.0021165058
0000b0 ae 3f 8d 3b f1 a6 7e 3b 9f 58 df 3c 14 ef bc 3c
       0.0043105697 0.003885683 0.027263938 0.02306322
0000c0 c2 8d 96 3b 89 f5 48 bd c2 45 6a ba c3 0f 42 bc
       0.0045945356 -0.049062286 -0.00089367863 -0.011844578
0000d0 9f ac ce bc ca 5e 16 bd 2b c5 e5 ba 7c 4c 43 3b
       -0.025228797 -0.03671149 -0.0017530074 0.0029800227
0000e0 03 19 33 3d 60 86 0e 3d f0 6b 6c 3d 79 45 b3 bb
       0.043725025 0.03479612 0.057720125 -0.0054709283
0000f0 f7 10 5e bd 91 c5 52 3a d5 e3 0f bc 1e 9b 3c 3d
       -0.054215398 0.0008040304 -0.008782347 0.04604637
000100 b3 7c 0c 3d 1e 0a 12 3d 6e 9f 28 bc 5c 45 8a bd
       0.03429861 0.03565418 -0.010291917 -0.067515105
000110 13 56 bb 3d a6 29 1b 3d 3f 2d 84 bc 1e 68 f7 bc
       0.09147277 0.037881516 -0.016134856 -0.030201014
000120 b2 33 0c bd 5d 68 8c 3d 8f 9c 8f bc 8f 9c 02 b8
       -0.034228988 0.06855843 -0.017530708 -3.1140222e-05
000130 f7 0b e1 bb 16 4b b1 bb c6 e9 b1 bc 34 24 28 bb
       -0.0068678814 -0.0054105623 -0.021717917 -0.0025656344
000140 db 8d e8 bc b6 f0 fd bc 81 29 0b bd ae 8e 75 3d
       -0.028387954 -0.030998569 -0.033975128 0.059950523
000150 b8 5f 27 3d e7 21 fb bb 17 6c 28 bc b0 75 ca 3c
       0.04086277 -0.0076639536 -0.010279677 0.02471432
000160 ff 17 5c bd ac a3 80 3c c5 dd dd bc 11 b7 2f bc
       -0.053733822 0.015703045 -0.027083287 -0.010724799
000170 08 ff 08 bc b3 d5 41 3b 47 9f 00 bc 6d a8 08 bd
       -0.008361585 0.0029576838 -0.007850475 -0.03336375
000180 32 6e 36 3d 44 c9 5c bd 54 36 a3 3d c7 28 ce bb
       0.044538684 -0.05390288 0.07969347 -0.006291482
000190 df 2e 69 bd 03 8d 36 bd d4 22 98 bc 6e 38 11 bd
       -0.056929465 -0.044568073 -0.018571295 -0.035454206
0001a0 0d d6 d5 bc 0d 59 90 3c 5a 61 b5 bc 7c 73 a8 bc
       -0.026103044 0.017620588 -0.022141147 -0.02056288
0001b0 66 b1 a2 3c ba f9 d6 3d b5 3d 80 bd ab f6 b4 bc
       0.01985998 0.1049685 -0.0626177 -0.022090277
0001c0 19 44 39 bb 22 b8 8c bc e4 de 62 bc da ed 0d 3d
       -0.002826935 -0.017177645 -0.013847087 0.03465066
0001d0 67 b7 8d bd 63 aa 78 bd 56 5e e0 ba 40 21 53 3d
       -0.06919747 -0.06070937 -0.0017117958 0.05154538
0001e0 58 2c 95 3c f1 4c 6c bb 81 87 5e 3d 41 f0 89 bc
       0.018209621 -0.0036056603 0.054328445 -0.016838195
0001f0 77 a6 28 bd c3 7d 1d bd 7f 5c 48 3d b7 59 e9 bc
       -0.04117438 -0.038450014 0.048916336 -0.028485162
000200 a1 a8 a6 bc a9 a6 57 bc 02 7d 90 3c a9 b8 cd 3d
       -0.02034408 -0.0131622935 0.017637733 0.10044987
000210 2b 0b 73 3d 87 5f a2 bc f7 01 9b bc 72 23 0f bc
       0.059336822 -0.019820942 -0.018921835 -0.008736478
000220 96 81 3c bc d9 3e 19 bd 40 8e 8c bc 6d 2d 83 bc
       -0.011505505 -0.03741345 -0.017157674 -0.016012872
000230 22 89 1f bd b3 e8 cb bc 44 fb ff bc b1 84 9d 3d
       -0.03894914 -0.024891233 -0.031247742 0.076913245
000240 1f 29 ac bc 9a 2e 17 bc bc 76 ac 3d c4 1c 33 3d
       -0.021015702 -0.009227419 0.08421084 0.043728605
000250 f6 34 bc 3c ec 80 ec 3b 89 c8 c0 3c 57 83 29 bd
       0.022974472 0.007217517 0.023533123 -0.04138502
000260 22 1b 14 bb 20 18 b1 3c 12 a3 2d bc b1 9d a6 3c
       -0.002259918 0.021617949 -0.010597961 0.020338865
000270 49 47 a1 bc b2 f9 23 3d 9e 3a ee bc 5b c1 f7 bc
       -0.019687312 0.04003305 -0.029080685 -0.030243566
000280 3a ff 54 bd ca 97 4e 3c e4 79 84 3d 62 7b 0b 3d
       -0.052001216 0.0126094315 0.06468561 0.034053214
000290 44 14 62 bb 9a 67 20 3d 59 35 96 bc a3 fe 49 3d
       -0.0034496943 0.039161302 -0.018335985 0.049315106
0002a0 03 17 12 3d 4f 0b be bd 50 f2 a1 bc 19 e0 a8 bd
       0.035666477 -0.09279501 -0.019768864 -0.08245868
0002b0 92 c3 64 3d e4 e8 2c 3c bf 4f 98 bc f6 d1 01 3c
       0.055850573 0.010553572 -0.018592713 0.007923594
0002c0 13 15 d2 3c f5 ce 29 3c 3b 30 d2 3c 92 36 66 3d
       0.025644815 0.010364284 0.025657764 0.056204386
0002d0 ec 30 f5 3c b0 f8 aa 3b aa 31 b6 3c ae 07 52 bd
       0.029930554 0.005217634 0.022240479 -0.051276855
0002e0 b4 e7 0e 3d 4b 6a 78 bd 60 0e 78 bc 18 37 3d bc
       0.034888938 -0.060648244 -0.015140146 -0.01154878
0002f0 94 bb 11 bd 53 33 55 3b 2e 87 81 bb 92 08 cb bc
       -0.03557928 0.0032531812 -0.0039528823 -0.02478436
000300 f2 71 d6 3c b2 6e 10 3c 84 23 6b 3c dc b6 25 bd
       0.02617738 0.008815454 0.014351729 -0.04045759
000310 34 fc 80 bc fa 6b cc 3c 9f 9c 11 3d aa 32 e3 ba
       -0.01574526 0.024953831 0.035549756 -0.0017333825
000320 ef 3c a4 bd c7 a8 8e 3d 3f 81 98 bc 5c 09 71 bd
       -0.08019435 0.069657855 -0.018616317 -0.058846816
000330 7a d2 2c 3d ba c1 3b bd fd 69 47 3d 42 9a 0d bd
       0.042192914 -0.04583905 0.048685063 -0.03457094
000340 c1 39 57 bd 95 5d 15 3d 10 22 87 bd 81 cf 2d bd
       -0.052545313 0.0364662 -0.06598294 -0.04243422
000350 59 19 b3 3d 22 b6 ac 3c 38 06 65 bc f1 85 3a 3c
       0.08745069 0.021082941 -0.013978533 0.011384473
000360 8a b8 95 3d b3 f6 97 3c 84 ea 8f bd 04 ff 74 3c
       0.07310589 0.018550253 -0.07027152 0.014953379
000370 a5 03 41 ba 14 df e9 bc 31 04 4f bb b1 46 7a bb
       -0.0007362909 -0.028548755 -0.0031588192 -0.0038189108
000380 4b 64 fe 3c ab ea 8d bd 2a fc 18 bd fa 03 c6 3c
       0.031053683 -0.06929525 -0.037349857 0.024171818
000390 cc 0b 5f bd d6 5c ac 3c 9d 5b 57 bd 23 fc 55 bd
       -0.05445461 0.021040361 -0.052577604 -0.05224241
0003a0 4a 52 20 bc be 9f 86 bc 52 45 3f 3b f9 6e 62 3c
       -0.009785244 -0.016433593 0.0029185605 0.013820403
0003b0 66 40 db 3c 7a 21 23 3c 14 74 41 bc 7b 31 83 bd
       0.026764106 0.009956712 -0.01180746 -0.06405922
0003c0 4b 35 21 3d 86 22 4a 3d 6d 6a 56 3d ca 40 85 bd
       0.039357465 0.04934933 0.05234759 -0.06506498
0003d0 fe 39 8b bd f8 b2 40 bc 3d 9c cc 3b df 64 7d 3d
       -0.067981705 -0.0117614195 0.006244211 0.061863776
0003e0 0d fa 1c bd 96 0d 84 bb 95 6f 96 bc 57 65 e9 3a
       -0.038324405 -0.00402994 -0.018363753 0.0017806691
0003f0 27 91 65 3b 78 86 ac 3c 98 e6 5d bd 47 9f 13 3d
       0.0035029144 0.021060213 -0.05417499 0.03604057

onnx::Conv_101 f4 [32]
000000 e0 0a ac bd 23 2d a8 3d 46 a9 bb 3e 42 8e b8 be
       -0.08400512 0.08211734 0.36652583 -0.36046034
000010 cc 4c 60 3c be 8a 1e bd 26 db 22 3e b2 75 5d 3d
       0.013690185 -0.038706534 0.15903911 0.05406732
000020 ea 1b c8 bd 90 b7 50 bd 1a 68 c3 3d 4c 57 a5 be
       -0.09770949 -0.05095631 0.0954134 -0.32293165
000030 2e c8 6a 3e 2d 87 57 3e bd 3c 9d bd a5 9d 23 be
       0.22927925 0.21047659 -0.076776005 -0.15978105
000040 3b 6f e1 bc cf a0 7a be c6 87 1d 3f 80 5e 9b 39
       -0.02751886 -0.24475406 0.615353 0.00029634312
000050 2a 9a 65 bf 8e 48 f1 3d a0 4e 57 be 82 c2 46 bd
       -0.8968836 0.11781417 -0.21026087 -0.04852534
000060 fc 22 be bd 1a 0c ce bc 22 25 7a be 24 8d dc bd
       -0.092840165 -0.025152255 -0.24428228 -0.10769108
000070 0e 70 31 be e4 3d 1c be 4a 34 22 3e 03 7d 5f be
       -0.17327902 -0.15257984 0.15840259 -0.21825032
