Assets/Models/TCNAE_1_nod.onnx (onnx, 379537 bytes, 15 tensors)

fc_enc.weight f4 [10, 2752]
0	0x3cc9ee99	0.024649905
1	0xbd0d2bb0	-0.03446549
2	0x3c8dedb0	0.017325252
3	0xbd063970	-0.03276962
4	0xbc92123b	-0.017830959
5	0x3ba8d3db	0.0051522083
6	0x3c3f67eb	0.011682491
7	0x3bb1899d	0.005418016
8	0xbcebbb2d	-0.028775776
9	0x39c926a4	0.00038366497
10	0x3c011035	0.007877399
11	0x3c690e2d	0.014224571
12	0xbd0abbf3	-0.03387065
13	0xbc80c9f7	-0.015721304
14	0xbd0bc578	-0.034123868
15	0x3cd9ce87	0.026587738
16	0x3b88890f	0.0041667293
17	0xbc747837	-0.01492124
18	0x3cdd235b	0.026994398
19	0xbc13eada	-0.009028161
20	0xbb5353f2	-0.003224608
21	0x3b45de76	0.0030192412
22	0xbb95bed9	-0.00456987
23	0xbc4299dc	-0.011877503
24	0x3a146c42	0.00056618836
25	0x3c0a9b99	0.008459949
26	0x3c1ffe17	0.00976517
27	0xbc238f33	-0.009982872
28	0x3c75249b	0.014962341
29	0x3b97aa10	0.0046284273
30	0x3a9f5fb7	0.0012159263
31	0x3c6c4078	0.014419667
32	0xba0710af	-0.00051523274
33	0xbd0245e2	-0.031804927
34	0xbc4f7870	-0.012662992
35	0xbc0e36ac	-0.008680027
36	0xbbddafe2	-0.0067653516
37	0x3bd2566b	0.006418993
38	0x3c511f66	0.012763834
39	0xbb3ecd00	-0.0029113889
40	0x3c4a67d9	0.012353861
41	0xbae49aef	-0.0017441193
42	0xba2c2208	-0.00065663503
43	0x3b737e23	0.003715404
44	0xbcf9b0a3	-0.030479735
45	0x3bd21d63	0.0064121946
46	0x3bcc3d93	0.006232926
47	0xbc5e5e97	-0.013572357
48	0xbbbdc3a0	-0.0057911426
49	0xbc461ce0	-0.012091845
50	0x3ccf05ba	0.025271285
51	0xbd0db2a2	-0.034594186
52	0x3c2efb50	0.010680035
53	0x3c9b7ad1	0.018979462
54	0x3c89c4b7	0.016817434
55	0x3b3baca9	0.002863685
56	0xbaf725d4	-0.0018855878
57	0x3cf99732	0.030467603
58	0xbbd2d0f8	-0.0064336024
59	0xbc94c63a	-0.018160928
60	0xbc01e4fc	-0.007928129
61	0xbc34ee43	-0.011043134
62	0xbb117a51	-0.002219815
63	0xb9e5ff70	-0.000438686
64	0x3c1b8481	0.009492041
65	0x3a72a5f4	0.00092562963
66	0x3c115ac1	0.008871735
67	0xbc6ba14c	-0.014381718
68	0x3c5a3a87	0.013319618
69	0x3b9082ef	0.0044101398
70	0xbc25f780	-0.010129809
71	0x3a571b71	0.0008205688
72	0xbc4df5e4	-0.012570832
73	0xbb355569	-0.0027669317
74	0x3ca350fc	0.019936077
75	0xbbaf3c9a	-0.0053478004
76	0x3bb1e663	0.0054290756
77	0x3c3ed083	0.011646393
78	0xbca6c415	-0.020357171
79	0x3c22002e	0.009887738
80	0x3aae7f62	0.001331311
81	0x3cac905e	0.021064933
82	0xbc0cda41	-0.008596958
83	0x3b8d1de3	0.0043065413
84	0xbb8f58ec	-0.004374614
85	0x3b3a2bdd	0.0028407492
86	0xbbe6e74e	-0.0070466166
87	0xbccc0337	-0.024903877
88	0x3c165a26	0.0091767665
89	0xbbee1ce6	-0.0072666286
90	0x3c1e8870	0.009676084
91	0xbc22244f	-0.009896352
92	0xbc03ca29	-0.008043804
93	0xbcc0506d	-0.02347585
94	0xbcd7dee4	-0.0263514
95	0xbce5fba4	-0.028074093
96	0xbd286937	-0.041115966
97	0xbcf65c0a	-0.030073185
98	0xbce07b04	-0.027402408
99	0x393fe751	0.00018301352
100	0xbab1bb5c	-0.0013559866
101	0x3cedbea3	0.029021567
102	0xba0755fe	-0.0005162655
103	0x3b5e35a6	0.0033906489
104	0xbc8a072b	-0.016849121
105	0xbc4fe648	-0.012689181
106	0x3c938ff7	0.018012984
107	0x3c98ffeb	0.018676719
108	0xbcc8a082	-0.024490599
109	0x3c6ee37a	0.014580602
110	0xbc6740c6	-0.014114564
111	0x3c6547e8	0.013994195
112	0xbca66e24	-0.020316191
113	0xbb3e7cc0	-0.0029066056
114	0x3bd55906	0.0065108566
115	0xbc29ce86	-0.01036418
116	0x3cae2992	0.021260057
117	0x3cba3c1e	0.022733744
118	0x3b00ebcd	0.0019671798
119	0xbb37bfb6	-0.0028037853
120	0xba2bdc32	-0.0006555944
121	0x3b16e664	0.0023025507
122	0xbc1024be	-0.0087978225
123	0x3c25b7e9	0.010114648
124	0x3b0ec8f4	0.0021787258
125	0xbb672122	-0.0035267551
126	0xba90bc24	-0.0011042398
127	0xbc6aa2ae	-0.014321012
128	0xbc11178b	-0.008855711
129	0xbce63753	-0.028102553
130	0x3a6370a8	0.000867615
131	0xbcdfb076	-0.027305823
132	0x3b9e96b7	0.004839744
133	0xbc80e37b	-0.015733471
134	0xbca390a5	-0.019966433
135	0xbcad46e3	-0.021151965
136	0xbcec84ba	-0.028871883
137	0xbc5829e2	-0.013193579
138	0xbc39cfad	-0.011341018
139	0xbc597418	-0.013272308
140	0x3c7ad54c	0.015309643
141	0x3c3dd355	0.01158603
142	0x3c0bd76f	0.00853525
143	0x3cd2ccad	0.025732363
144	0x3ca5492d	0.020176494
145	0xbc03ef91	-0.008052723
146	0x3cb8f64e	0.022578385
147	0xbc8b0f5c	-0.016975097
148	0xba9b5a2b	-0.0011852434
149	0xbac230f8	-0.0014815619
150	0x3c9e9ef1	0.019362899
151	0xbcb26eb3	-0.021781301
152	0x3c85d4d9	0.016336845
153	0x3be29a6c	0.006915381
154	0x3c24b470	0.010052785
155	0xbc8220fd	-0.01588487
156	0xbb2c7246	-0.002631323
157	0xbbea26d2	-0.007145741
158	0x3cba0a02	0.02270985
159	0x3bcfb2d6	0.0063384576
160	0x3c980d63	0.01856107
161	0xbb216e71	-0.0024632479
162	0xbc275d27	-0.01021508
163	0xbcca1f26	-0.024673056
164	0xbbd4caee	-0.0064939177
165	0x3a3f8d90	0.0007307166
166	0x3c0f36cb	0.008741091
167	0x3bd8f455	0.0066209235
168	0x3c2b1396	0.010441681
169	0xbc9726c7	-0.018451108
170	0xbc32b1da	-0.010906661
171	0x3c6da8f8	0.014505617
172	0xbd14c7af	-0.036323246
173	0xbbee174c	-0.007265961
174	0x3c9c5914	0.019085445
175	0x3be783b3	0.0070652603
176	0xbc969a80	-0.018384218
177	0x397cc816	0.0002410713
178	0xbcc4ee8b	-0.024039527
179	0x3c90114f	0.017586378
180	0x3c5eebb1	0.013605998
181	0xbc8db86b	-0.017299851
182	0x3c1a1dcc	0.009406518
183	0x3c19de03	0.009391311
184	0xbc2d4ebc	-0.010577854
185	0xbbb03470	-0.005377345
186	0xbb9fdbf0	-0.0048785135
187	0xbcc526fa	-0.024066437
188	0xbcefd5fe	-0.029276844
189	0xbc831ecc	-0.016005896
190	0x3c9b0932	0.018925283
191	0x3c911c6e	0.017713752
192	0xbc9c7301	-0.019097807
193	0xbd1d4a11	-0.038400713
194	0xbbfeb64b	-0.007773196
195	0xbc2320c5	-0.009956543
196	0x3c15823e	0.00912529
197	0x3ba1664c	0.004925525
198	0xbb9af5a3	-0.004728989
199	0x3c729da7	0.014808095
200	0x3ca39069	0.019966321
201	0x3cc88c58	0.024480984
202	0x3a2beee5	0.00065587304
203	0xbb83f8d1	-0.004027464
204	0xbc177820	-0.009244949
205	0x3c46b01f	0.0121269515
206	0xbcbd01b9	-0.02307211
207	0xbc03a0b6	-0.008033922
208	0x3c87c009	0.016571062
209	0x3c7b80ce	0.015350534
210	0x3c908b84	0.017644651
211	0x3bec50dd	0.007211788
212	0x3c444848	0.011980124
213	0x3cce00d8	0.025146887
214	0x3c4d1d8a	0.01251925
215	0xbc060cc0	-0.008181751
216	0xbac51ebc	-0.0015039067
217	0xbc25de69	-0.0101238275
218	0xbc35d0b3	-0.011097121
219	0xbb377650	-0.0027994104
220	0xbcc88fd9	-0.024482654
221	0x39af4788	0.00033431896
222	0xba2df98f	-0.00066366134
223	0x3bc77168	0.006086517
224	0xbc451ea3	-0.01203123
225	0xbcee8c86	-0.029119741
226	0xbc93a7ce	-0.018024351
227	0xbc7fa979	-0.01560437
228	0xbcfdcd5e	-0.030981716
229	0xbcb52e22	-0.022116724
230	0xbb8dfde3	-0.004333244
231	0x3c32d0e7	0.010914064
232	0xbc8345aa	-0.01602443
233	0x3b96f3c1	0.0046066944
234	0xbc8768df	-0.016529499
235	0x3bf2a2d1	0.007404663
236	0xbcf4afc6	-0.029868972
237	0xbc3f686f	-0.011682614
238	0x3c865ffc	0.01640319
239	0x3b71ec71	0.0036914612
240	0x3be11987	0.006869498
241	0x3c7ced03	0.015437367
242	0x3cad1d16	0.021132033
243	0xbba00429	-0.0048833084
244	0x3bf39a2e	0.007434151
245	0xbc88aff5	-0.016685465
246	0x39234dee	0.00015573922
247	0x3aad8cdc	0.0013240832
248	0xbc0aa088	-0.008461125
249	0xbc75a055	-0.014991839
250	0x3c6c0054	0.014404375
251	0x3c0b99ab	0.008520524
252	0xbc49d342	-0.012318434
253	0x3c940b36	0.018071752
254	0x3bdae2b9	0.0066798595
255	0x3ca9c952	0.02072588

fc_enc.bias f4 [10]
0	0x3b562323	0.0032674752
1	0x3a18b243	0.0005824903
2	0x3c5aae79	0.013347262
3	0x3a86c3a1	0.0010281691
4	0xbc04c5b5	-0.008103778
5	0x3bf5b29e	0.0074980995
6	0x3ba05381	0.004892767
7	0x3c5fcdd3	0.013659912
8	0x3aefb6ec	0.0018288768
9	0x3c8425c0	0.016131282

fc_dec.weight f4 [2752, 10]
0	0x3e891170	0.26771116
1	0x3e2a4bd4	0.16630489
2	0xbe8c660d	-0.2742161
3	0xbdde74cd	-0.10862122
4	0x3e47aee1	0.19500305
5	0x3d4197d2	0.047263928
6	0x3e9e1a59	0.30879477
7	0x3e8dbd68	0.27683568
8	0xbd8c4bea	-0.06850417
9	0xbd38ca7e	-0.045114987
10	0x3e2add09	0.1668588
11	0xbe6526bf	-0.22378062
12	0xbe583f0b	-0.21117799
13	0xbe907d13	-0.28220424
14	0x3e9faa75	0.31184736
15	0xbd9e0640	-0.07716036
16	0xbadf93b2	-0.0017057566
17	0x3e8989be	0.268629
18	0x3c0e524e	0.008686615
19	0x3e54553f	0.20735644
20	0x3d99f0b5	0.07516614
21	0x3e332988	0.17496312
22	0xbe8f1d23	-0.27951917
23	0x3e53b485	0.20674331
24	0x3e1fed1a	0.15617791
25	0xbe7310ba	-0.2373685
26	0x3dc6a597	0.096995525
27	0xbe83bba9	-0.2572911
28	0xbea07840	-0.31341743
29	0xbe452f6c	-0.19256371
30	0x3e8d050a	0.27542907
31	0x3e76c683	0.24099164
32	0x3e013067	0.1261612
33	0x3e372e5d	0.1788878
34	0x3d75c585	0.060002822
35	0x3eb71757	0.35759994
36	0x3db50d77	0.08840459
37	0xbdc791fb	-0.097446404
38	0x3e0bcd94	0.1365264
39	0x3b1b2af9	0.0023676737
40	0xbeace05b	-0.3376492
41	0xbe63af2e	-0.22234794
42	0x3e6cfc47	0.23143111
43	0x3e8cbfe6	0.27490157
44	0x3e28075d	0.16409059
45	0x3b9bbc54	0.004752675
46	0xbea93ce3	-0.33054265
47	0x3e782ec1	0.24236585
48	0x3dea3886	0.11436562
49	0xbea65b01	-0.32491305
50	0x3d046a49	0.032327924
51	0x3d456802	0.048194893
52	0x3c679340	0.014134228
53	0xbe6f60d5	-0.23376782
54	0xbe2cb70c	-0.16866702
55	0xbd24ac95	-0.04020365
56	0x3e96fbd1	0.29488996
57	0xbe8966a8	-0.26836133
58	0xbe122680	-0.14272499
59	0x3d9cac76	0.07650082
60	0xbc9aa472	-0.018877242
61	0x3e0a23df	0.13490246
62	0x3e0727fb	0.13198845
63	0xbe68e5af	-0.22743867
64	0x3d5aaf8e	0.05339008
65	0xbe304cbf	-0.17216776
66	0xbe8a4f8d	-0.27013817
67	0x3e861458	0.26187396
68	0x3e4e2c8d	0.20134182
69	0xbd357fec	-0.04431145
70	0xbdbe40a1	-0.09289671
71	0x3e684e45	0.22686107
72	0x3e916926	0.28400534
73	0xbd9ac760	-0.07557559
74	0x3e72143d	0.23640533
75	0xbe8bd9ec	-0.273147
76	0xbe91f5ea	-0.2850793
77	0xbe591dc8	-0.21202767
78	0xbe8ef02f	-0.2791762
79	0xbe768a2a	-0.24076143
80	0xbe8db4c9	-0.2767699
81	0x3d1737a6	0.036918305
82	0x3ddb7037	0.10714763
83	0x3d9967c5	0.074904956
84	0x3e8ca5c5	0.27470222
85	0xbe1205b1	-0.14259984
86	0xbe6bc328	-0.23023665
87	0xbe7ca864	-0.24673611
88	0x3e1d1223	0.1533895
89	0xbe675a52	-0.22593048
90	0xbe182e22	-0.14861348
91	0x3e85140c	0.25991857
92	0xbdad396b	-0.08458217
93	0xbe3a3334	-0.18183595
94	0xbe2752b2	-0.1634014
95	0xbe4673d1	-0.19380118
96	0x3ce20bde	0.02759355
97	0x3e3f14d3	0.18660288
98	0xbe805c7a	-0.25070554
99	0x3ac441c2	0.0014973211
100	0x3e6a8776	0.22903237
101	0x3dc45aac	0.09587607
102	0x3e2e31f4	0.17011243
103	0xbdf1d824	-0.11808804
104	0x3e0276f4	0.1274069
105	0xbd022dc9	-0.031781945
106	0xbcb0bac0	-0.021573424
107	0xbe4ed7b0	-0.20199466
108	0xbd12cffa	-0.035842873
109	0x3e495010	0.19659448
110	0xbe62d9ef	-0.22153448
111	0xbc90c7fa	-0.017673481
112	0x3cd32541	0.0257746
113	0xbd48b5cf	-0.04900151
114	0x3e2d32ef	0.16913961
115	0xbea5df02	-0.32396704
116	0xbe400f95	-0.18755944
117	0x3ea98f84	0.33117306
118	0x3cdb81b2	0.026795242
119	0xbd351d9a	-0.044217683
120	0x3e9b5ecb	0.3034576
121	0xbe15e6fc	-0.14638895
122	0xbc57b2d6	-0.013165196
123	0x3e4f0749	0.20217623
124	0xbe036961	-0.12833168
125	0xbe8b387a	-0.27191526
126	0xbe7c9184	-0.24664885
127	0xbe042024	-0.12902886
128	0xbe03159a	-0.12801209
129	0x3e35f93d	0.17770858
130	0x3dfad7e8	0.12248212
131	0xbdd12fb6	-0.10214178
132	0xbd0fa054	-0.03506501
133	0x3dea8da5	0.11452798
134	0x3e6a5664	0.22884518
135	0x3e6a7f5a	0.22900143
136	0xbdcb0c6f	-0.09914481
137	0xbca704da	-0.020388056
138	0x3e1bb5e3	0.15206103
139	0x3e80dd92	0.25169045
140	0xbd7ebf5d	-0.062194217
141	0x3e5ab096	0.21356425
142	0x3e930630	0.28715658
143	0xbb2374d8	-0.002494147
144	0x3a753868	0.00093544135
145	0x3d48af1d	0.048995126
146	0x3e250fb6	0.16119274
147	0xbdb92797	-0.09040754
148	0xbe57928e	-0.21052
149	0xbdf01289	-0.11722285
150	0xba3d685b	-0.0007225328
151	0x3e146b03	0.14493947
152	0xbe641dc0	-0.22276974
153	0x3dfc9213	0.12332549
154	0x3e03ec41	0.12883092
155	0x3e106b3c	0.14103407
156	0x3e682204	0.22669226
157	0x3e896e02	0.26841742
158	0xbe4d6b61	-0.20060493
159	0xbe729785	-0.23690613
160	0x3df8f0d6	0.12155311
161	0xbe838647	-0.25688383
162	0x3e6f78bf	0.23385905
163	0x3dba5016	0.090973064
164	0x3e983cfb	0.29734024
165	0x3e0f4736	0.13992009
166	0xbe5397f4	-0.20663434
167	0xbd24773c	-0.040152773
168	0x3e8588bd	0.26080886
169	0x3d8cca52	0.06874527
170	0xbe9adcb6	-0.30246514
171	0xbd358b9b	-0.04432259
172	0x3cd98bc1	0.026555898
173	0x3b357cee	0.0027692872
174	0xbec12bf2	-0.3772884
175	0xbe489bc2	-0.19590667
176	0xbe88e478	-0.26736808
177	0x3c33c101	0.010971309
178	0x3dfb9261	0.12283779
179	0xbe7c44c5	-0.24635608
180	0x3e96c053	0.29443607
181	0x3e18a6b5	0.14907344
182	0xbc1d2358	-0.009590946
183	0x3e592b01	0.21207811
184	0x3e8eefec	0.2791742
185	0xbe117b1f	-0.14207123
186	0xbe53ab7e	-0.20670888
187	0x3e47e05b	0.19519179
188	0x3e761f16	0.24035296
189	0x3e8fcad4	0.28084433
190	0x3e9577c0	0.29192924
191	0xbd1c2199	-0.03811798
192	0x3c5da74b	0.013528655
193	0xbd3a3da9	-0.04546896
194	0xbe71e1a2	-0.23621228
195	0x3d92e2dc	0.07172176
196	0xbe754f26	-0.23955974
197	0xbea8f131	-0.32996514
198	0x3d06707e	0.032822125
199	0xbe98d5d4	-0.29850638
200	0x3e04f699	0.12984695
201	0x3e589c35	0.21153338
202	0x3e90d995	0.28291002
203	0x3c47d63c	0.012197074
204	0xbe625aad	-0.22104903
205	0xbd9676d5	-0.07346884
206	0xbe57ea31	-0.2108543
207	0x3e2d1983	0.16904263
208	0xbd1280af	-0.035767253
209	0xbea5c1bf	-0.3237438
210	0xbe7e937d	-0.2486095
211	0xbe90d859	-0.2829006
212	0xbe9c992b	-0.30585608
213	0xbdea3b93	-0.11437144
214	0xbe87782b	-0.26458868
215	0x3e11f3ef	0.1425321
216	0x3e97b573	0.29630622
217	0xbd118b96	-0.03553351
218	0x3e192d43	0.14958672
219	0x3da6c603	0.081432365
220	0xbdac1418	-0.0840227
221	0xbe55a550	-0.20863843
222	0x3e9c431e	0.30519956
223	0x3e134873	0.14383106
224	0x3eaf79fd	0.34272757
225	0xbe536a36	-0.20645985
226	0xbd4935e2	-0.049123652
227	0xbcf7b169	-0.030235963
228	0xbe1c487f	-0.1526203
229	0x3d117ddc	0.03552042
230	0x3e21ddb7	0.15807234
231	0xbe830513	-0.2558981
232	0xbd271022	-0.04078687
233	0xbd624e5c	-0.05525051
234	0x3de88ae3	0.113546155
235	0x3e93228d	0.28737298
236	0x3e00cd00	0.12578201
237	0x3e1d8dbd	0.153861
238	0xbe7a4387	-0.24439822
239	0xbe7c400f	-0.24633811
240	0xbd722860	-0.059120536
241	0xbd8b14a2	-0.06791045
242	0x3eb0b520	0.34513187
243	0xbe6204ce	-0.22072145
244	0xbce6ab9f	-0.028158007
245	0x3dc5ae9a	0.09652443
246	0x3e2dd0bf	0.16974162
247	0xbe19f09c	-0.15033191
248	0xbb76213f	-0.0037556437
249	0xbd9767d4	-0.073928505
250	0x3e6195d5	0.22029813
251	0x3c3c5349	0.011494466
252	0x3d3dbcc2	0.04632259
253	0x3e658121	0.2241254
254	0xbe328105	-0.1743203
255	0x3d81b4cc	0.063333124

fc_dec.bias f4 [2752]
0	0xbe838d32	-0.2569366
1	0x3e928ee0	0.2862463
2	0x3e3163e9	0.17323269
3	0x3ea9d4bb	0.33170113
4	0xbdc45a00	-0.09587479
5	0xbcda468e	-0.026644971
6	0xbe459808	-0.19296277
7	0x3e798ee0	0.24370909
8	0x3bacec0b	0.005277162
9	0xbdc11cab	-0.09429296
10	0x3e6daded	0.23210879
11	0xbe0d9de4	-0.13829762
12	0x3e3abc63	0.18235926
13	0xbe8540df	-0.26026055
14	0x3e8afa73	0.27144203
15	0x3dff852d	0.12476573
16	0x3e194cd4	0.14970714
17	0xbe7430a0	-0.23846674
18	0xbe52770a	-0.20553222
19	0xbe34590a	-0.1761209
20	0xbe355034	-0.17706376
21	0x3d343ccd	0.044003297
22	0x3d52365f	0.051321384
23	0x3d331df1	0.043729726
24	0xbe56f7c2	-0.2099295
25	0xbe37cedb	-0.17950003
26	0xbe804605	-0.2505342
27	0xbea48385	-0.3213159
28	0xbe82c971	-0.25544313
29	0xbdeb5e4d	-0.11492596
30	0x3d0ee211	0.034883562
31	0xbe927198	-0.2860229
32	0x3e8ad86e	0.27118248
33	0xbd2b857e	-0.041875355
34	0x3e8a11ee	0.26966804
35	0xbd08e998	-0.033425897
36	0xbcf4caa5	-0.029881785
37	0xbe8b6187	-0.27222845
38	0xbe62f6bb	-0.22164433
39	0xbd3b8a89	-0.045786414
40	0xbddfb5bd	-0.10923336
41	0xbe93d9fc	-0.28877246
42	0xbda41820	-0.08012414
43	0xbddba314	-0.10724464
44	0xbd8f644e	-0.070015535
45	0x3ea1e7ed	0.31622258
46	0x3e378914	0.17923385
47	0x3e0d26a2	0.13784268
48	0xbeabda65	-0.3356506
49	0xbe8d2f1d	-0.27575007
50	0xbd77a7ac	-0.06046264
51	0x3e359fa5	0.17736681
52	0xbe37fb9f	-0.1796708
53	0x3e89678f	0.2683682
54	0x3c946c0f	0.018117933
55	0xbe110fa9	-0.1416613
56	0x3dd28b49	0.10280473
57	0xbe9d16e8	-0.3068154
58	0x3e564453	0.20924501
59	0x3da01d0a	0.07818039
60	0xbe7fd960	-0.24985266
61	0xbea8a32e	-0.32936996
62	0xbd972d38	-0.07381672
63	0xbde0bc86	-0.10973458
64	0x3da960ce	0.08270417
65	0xbd4ee839	-0.050514434
66	0xbe8bd256	-0.2730891
67	0xbdc61f8e	-0.09673987
68	0xbe1560f1	-0.14587761
69	0xbdf59de4	-0.11993006
70	0x3e021d50	0.12706494
71	0xbda7ed94	-0.08199611
72	0xbea1072f	-0.31450793
73	0xbd5aa763	-0.05338229
74	0xbe13e5a6	-0.14443073
75	0x3e4842ff	0.19556807
76	0xbda7cebf	-0.081937306
77	0xbd600781	-0.054694656
78	0x3df7e3a9	0.121039696
79	0xbdb9cde5	-0.090724744
80	0x3e47d86b	0.1951615
81	0x3c60cd31	0.013720796
82	0x3e8a7a4a	0.27046424
83	0x3e05e8f9	0.13077153
84	0xbdf758a5	-0.120774545
85	0xbe42461b	-0.18972056
86	0xbb8a36bf	-0.004217952
87	0xbcd9b150	-0.026573807
88	0xbe33e0ea	-0.17566267
89	0xbea3d195	-0.31995836
90	0x3da3f77b	0.080061875
91	0xbe2f4761	-0.17117073
92	0xbe9e87ce	-0.30962986
93	0xbe898f23	-0.26867017
94	0xbebd3874	-0.36957133
95	0xbe659ec0	-0.2242384
96	0x3c30b256	0.010784706
97	0x3e1f9f3a	0.15588084
98	0xbe2b3914	-0.16720992
99	0xbe82f468	-0.25577092
100	0x3b8006e6	0.0039070724
101	0xbe88f0b1	-0.26746133
102	0xbe3f0876	-0.18655571
103	0xbe4d70f4	-0.2006262
104	0x3dcc37c6	0.099715754
105	0xbe2c75d5	-0.16841824
106	0xbe89dfaf	-0.2692847
107	0xbe255e35	-0.16149218
108	0xbd328abc	-0.04358934
109	0xbe2039c2	-0.15647033
110	0x3da04fc2	0.078277126
111	0x3e5b4492	0.21412876
112	0xbde1d056	-0.11026065
113	0xbe52bd3c	-0.2058
114	0x3de7156c	0.11283383
115	0xbe0699c7	-0.13144599
116	0x3d491beb	0.04909889
117	0x3e96b0ca	0.29431754
118	0x3e14bf43	0.14526086
119	0xbde698e3	-0.112596296
120	0xbdc6e663	-0.097119115
121	0x3e03e401	0.12879945
122	0xbe9c958a	-0.3058284
123	0xbdfff337	-0.124975614
124	0x3be4b099	0.00697906
125	0xbe26f62b	-0.16304843
126	0xbe1d8126	-0.15381297
127	0xbc87d8bb	-0.016582837
128	0xbdac70fc	-0.084199876
129	0x3cdda2a7	0.027055098
130	0xbe4a17f4	-0.197357
131	0xbe95a4b6	-0.29227227
132	0x3e475081	0.19464304
133	0x3d047d1a	0.03234587
134	0xbe11a3b4	-0.14222604
135	0xbe6014c7	-0.21882926
136	0xbe4809c3	-0.19534974
137	0xbe28ac0d	-0.16471882
138	0xbe035ca9	-0.12828316
139	0x3d661a36	0.05617734
140	0x3cfb439c	0.030671887
141	0x3daa4f5d	0.083159186
142	0x3d04e24a	0.03244237
143	0x3dbed658	0.093182266
144	0xbe1fcdca	-0.15605846
145	0x3e1a7a16	0.15085635
146	0xbe7419fa	-0.23838034
147	0x3d69b504	0.057057396
148	0xbe0e4b6d	-0.1389596
149	0x3e0560ba	0.1302518
150	0x3e9e2ac1	0.30891994
151	0xbd02d4a9	-0.03194109
152	0x3e8a188f	0.26971862
153	0x3e83c840	0.25738716
154	0x3d1ac049	0.037781034
155	0xbe207987	-0.15671359
156	0x3e107948	0.14108765
157	0xbdb7914d	-0.08963261
158	0xbea2957e	-0.31754678
159	0xbe8f972a	-0.28045017
160	0x3df06eee	0.11739908
161	0x3e966432	0.29373318
162	0xbe9d6203	-0.3073884
163	0xbd9162a7	-0.070988946
164	0xbe8c25be	-0.27372545
165	0xbdadac11	-0.08480085
166	0x3e703283	0.23456769
167	0x3e4125bb	0.1886205
168	0x3e9ff52e	0.31241745
169	0xbdb1f508	-0.08689314
170	0xbe6ce9c9	-0.23136057
171	0xbdf519d4	-0.11967817
172	0x3e4e27f5	0.2013243
173	0xbe6ed930	-0.23325038
174	0x3dcd2198	0.10016173
175	0x3d1382a2	0.036013253
176	0xbe9afc93	-0.30270824
177	0xbe937bc7	-0.28805372
178	0xbdff321b	-0.12460729
179	0x3e49f5e3	0.19722705
180	0xbd902e17	-0.07040041
181	0x3e187572	0.14888552
182	0x3e4712d9	0.19440784
183	0x3de27ed7	0.11059349
184	0x3e7eed32	0.2489517
185	0x3e5992e7	0.21247445
186	0xbe7685cb	-0.24074475
187	0x3eaa1554	0.33219397
188	0xbe91d015	-0.28479066
189	0x3e739c97	0.23790203
190	0xbe87c7b5	-0.26519552
191	0xbd7befb4	-0.061507896
192	0x3e8ffeae	0.28123993
193	0xbe2d3050	-0.16912961
194	0xbddb31e7	-0.107028775
195	0xbdee528a	-0.11636837
196	0xbd09530e	-0.033526473
197	0x3e2853b8	0.16438186
198	0xbe8b12b7	-0.27162716
199	0x3e0a9554	0.13533527
200	0xbe9103df	-0.28323266
201	0xbdc425f1	-0.09577549
202	0xbe63d537	-0.22249304
203	0xbe340578	-0.17580211
204	0xbe30e9fa	-0.17276755
205	0x3e9b4fb3	0.30334243
206	0x3d3243a8	0.043521553
207	0x3dfa0894	0.122086674
208	0x3e7ccad5	0.2468675
209	0x3e9e7072	0.30945164
210	0x3e760378	0.2402476
211	0xbd502b4f	-0.050822552
212	0x3de4ca05	0.11171345
213	0x3cb95104	0.02262164
214	0xbe8657d0	-0.2623887
215	0x3d4f9fbc	0.050689444
216	0xbea9189a	-0.33026582
217	0x3e2b1fbf	0.16711329
218	0x3e09e832	0.13467482
219	0xbd95e05e	-0.07318185
220	0x3e364738	0.17800605
221	0x3e3f9418	0.18708837
222	0x3dd83f52	0.105589524
223	0x3e2c063d	0.16799255
224	0x3d07a145	0.033112783
225	0xbe64b11c	-0.22333187
226	0xbe8bec9f	-0.27328965
227	0x3d6b803e	0.05749535
228	0xbe6d284c	-0.23159903
229	0xbe1c35dd	-0.15254922
230	0xbd270148	-0.040772706
231	0x3e543fd3	0.20727472
232	0xbe6af80d	-0.22946186
233	0x3e413886	0.18869218
234	0xbe69c3ec	-0.22828645
235	0x3ce04ee2	0.027381364
236	0xbcf7b8bd	-0.030239457
237	0xbe14ae0e	-0.14519522
238	0x3ea90899	0.33014372
239	0xbe85502b	-0.26037726
240	0x3c0708f7	0.0082418835
241	0xbc983c9f	-0.018583594
242	0xbe3a6641	-0.1820307
243	0xbe995d22	-0.29953867
244	0x3e8165c4	0.25272954
245	0xbe370d8d	-0.17876263
246	0x3e2d4d96	0.16924128
247	0xbe172514	-0.14760238
248	0xbd428921	-0.047494058
249	0xbe9c7bd5	-0.30563226
250	0x3e34ded2	0.17663124
251	0x3dd00ec4	0.10159066
252	0x3e17bbc9	0.14817728
253	0xbd09ac6c	-0.0336117
254	0x3e7d7ce7	0.24754678
255	0xbd6b908a	-0.05751089

onnx::Conv_91 f4 [16, 1, 7]
0	0x3dd15529	0.10221321
1	0xbf3268ed	-0.69691354
2	0x3f35bf0a	0.7099463
3	0xbed80d99	-0.42197874
4	0x3e4741cf	0.19458698
5	0xbe9fdf36	-0.31224984
6	0xbf047656	-0.51743066
7	0x3f514e69	0.8176027
8	0xbe8b3a80	-0.2719307
9	0xbec363d1	-0.3816209
10	0x3f31b751	0.69420344
11	0xbe119d40	-0.14220142
12	0xbee9ccaa	-0.4566396
13	0x3d224061	0.039612178
14	0xbe3a3f3e	-0.18188187
15	0x3bc8e113	0.0061303466
16	0xbeff9fc5	-0.49926582
17	0xbefd6452	-0.494906
18	0xbed84391	-0.4223905
19	0x3e233a31	0.15940167
20	0xbe1e9700	-0.1548729
21	0x3f4dea19	0.8043533
22	0xbef97848	-0.4872458
23	0x3dc495cb	0.09598883
24	0xbe60b817	-0.21945225
25	0x3f073e31	0.5282927
26	0xbc4e73ad	-0.012600821
27	0xbf399333	-0.72490233
28	0xbddfc68e	-0.10926543
29	0x3f6bfc97	0.92182297
30	0xbefa8e11	-0.48936513
31	0xbd8c7405	-0.068580665
32	0x3e9b74f7	0.30362675
33	0x3e41f32d	0.1894042
34	0x3ed4ac9e	0.41537946
35	0x3ea970b7	0.33093807
36	0xbebcf03b	-0.3690203
37	0x3e918d34	0.28428042
38	0xbd9582d5	-0.07300345
39	0x3f0d3e0a	0.5517279
40	0x3ea847e5	0.3286735
41	0x3ed39016	0.41320866
42	0xbef17b09	-0.4716418
43	0xbe2ff4d8	-0.17183244
44	0xbf123d81	-0.571251
45	0xbe1105d3	-0.14162378
46	0x3efa9642	0.48942763
47	0x3e6fce15	0.23418458
48	0xbf0db0e7	-0.55348057
49	0x3eee6fc1	0.46569636
50	0xbeff7dfc	-0.49900806
51	0xbe0a2d5f	-0.1349387
52	0x3f1dfaa2	0.6171056
53	0xbf3203b0	-0.69536877
54	0x3ee12dfe	0.43980402
55	0x3e69fc39	0.22850122
56	0x3c38235b	0.011238898
57	0xbe2e2ce0	-0.17009306
58	0x3e9ef73d	0.31048003
59	0x3f58092b	0.8438899
60	0x3e045f55	0.12926991
61	0xbd425be1	-0.047450904
62	0x3e9c21be	0.30494493
63	0xbea6070b	-0.32427248
64	0x3ee9dde8	0.45677114
65	0x3e86b223	0.26307783
66	0x3e993c2a	0.29928714
67	0xbefcc313	-0.4936758
68	0x3f0b030e	0.54301536
69	0x3f06394a	0.52431166
70	0xbf220623	-0.63290614
71	0x3ec4f977	0.38471577
72	0xbecc4588	-0.39896798
73	0x3ef45737	0.4772279
74	0xbf061fec	-0.5239246
75	0xbf100728	-0.5626092
76	0x3edf9872	0.43670994
77	0x3ef7c0c5	0.4838926
78	0x3f681a7c	0.9066541
79	0xbf0899dc	-0.5335977
80	0x3e005631	0.1253288
81	0xbeb71236	-0.3575608
82	0x3ec44430	0.38333273
83	0xbea75213	-0.32679805
84	0x3e74a081	0.23889352
85	0xbf2e2c49	-0.68036324
86	0x3f32c53b	0.698322
87	0xbef82e26	-0.48472708
88	0x3f004297	0.5010161
89	0x3e76e483	0.24110608
90	0x3e9d9c3d	0.30783263
91	0x3ed67cb2	0.4189201
92	0x3e200620	0.15627337
93	0x3f00b4e8	0.5027604
94	0xbf0ca72c	-0.54942584
95	0xbf07a9c3	-0.5299341
96	0x3ea134c2	0.31485564
97	0xbf1745c3	-0.5909082
98	0x3e157c47	0.1459819
99	0xbf312863	-0.6920225
100	0xbf1e6678	-0.61875105
101	0x3e592bb7	0.21208082
102	0x3ed5b19e	0.41737074
103	0x3f3d950c	0.7405555
104	0xbe493247	-0.19648086
105	0x3f0be064	0.5463927
106	0x3f128934	0.57240605
107	0xbe5b4623	-0.21413474
108	0xbf1c459b	-0.6104371
109	0x3ea7c9ed	0.32771245
110	0xbf0b77ef	-0.5447988
111	0x3ee00412	0.43753105

onnx::Conv_92 f4 [16]
0	0x3f47330b	0.7781226
1	0xbe7773ec	-0.24165314
2	0x3fa77990	1.3083973
3	0xbcb7f0fa	-0.022453774
4	0xbf6ceaba	-0.92545664
5	0xbf97e13d	-1.1865612
6	0x3f805c07	1.0028085
7	0xbe92a42c	-0.28640878
8	0xbf9add45	-1.2098776
9	0xbf82ebd5	-1.022822
10	0x3f36efe2	0.7145978
11	0xbf13fecc	-0.57810664
12	0xbf334113	-0.7002117
13	0x3e699687	0.22811328
14	0xbcf6b9a6	-0.030117821
15	0xbec8535e	-0.39126104

onnx::Conv_94 f4 [32, 16, 7]
0	0xbc70b258	-0.014690958
1	0xbda8a8f4	-0.0823535
2	0x3e0a7e07	0.13524638
3	0xbc83e842	-0.01610196
4	0x3db98ecb	0.09060439
5	0x3d490d13	0.049084734
6	0xbe24db98	-0.16099393
7	0x3e16d86d	0.14730997
8	0xbe49657c	-0.1966762
9	0x3e1ea33e	0.1549196
10	0xbe62c636	-0.22145924
11	0xbd878995	-0.066180386
12	0x3c469d67	0.012122489
13	0x3b3671d7	0.002783885
14	0x3e068003	0.1313477
15	0xbd838110	-0.06421101
16	0xbe46c315	-0.19410355
17	0x3e7c1abb	0.24619572
18	0x3b670fee	0.0035257298
19	0xbe07288f	-0.13199066
20	0xbdc6cb71	-0.09706772
21	0x3daf765c	0.08567497
22	0xba41da16	-0.0007394863
23	0x3d8c5122	0.06851412
24	0xbd55245f	-0.05203664
25	0x3c9f05b6	0.019411903
26	0x3e04ec2a	0.12980714
27	0x3e0fa375	0.14027198
28	0xbe2cebf1	-0.1688688
29	0xbbab2441	-0.0052228277
30	0xbe49a297	-0.1969093
31	0xbd69d0d6	-0.057083927
32	0xbde5fdc0	-0.112300396
33	0xbe3eacbf	-0.18620585
34	0xbde2dca1	-0.11077238
35	0x3d499063	0.049209964
36	0xbda1f8e4	-0.079088
37	0xbe1a4cab	-0.15068309
38	0xbd8f8582	-0.070078865
39	0x3dca474f	0.09876882
40	0xbbd097f6	-0.0063657714
41	0x3ddd6b43	0.10811474
42	0x3d40077d	0.04688214
43	0xbe0004ee	-0.1250188
44	0xbdc251d4	-0.09488264
45	0x3d50d18d	0.050981093
46	0xbc2bdad7	-0.010489187
47	0xbe3e22a2	-0.18567899
48	0x3df2add5	0.11849562
49	0x3e58da7c	0.21177095
50	0xbe4062fd	-0.18787761
51	0xbc92a0a6	-0.017898869
52	0x3cf13d8c	0.029448293
53	0x3e3b3080	0.1828022
54	0x3e1f8c8b	0.15580957
55	0xbe0b030f	-0.13575386
56	0x3cc5c90d	0.02414372
57	0x3bf5151b	0.0074793226
58	0x3e12c261	0.14331962
59	0xbe45f8cb	-0.19333188
60	0xbd596782	-0.05307723
61	0xbd152cda	-0.036419727
62	0x3e2d8952	0.16946915
63	0xbe15a71b	-0.14614527
64	0x3e345adb	0.17612784
65	0xbe32f935	-0.17477877
66	0xbdb04261	-0.08606411
67	0x3c69b6cc	0.014264774
68	0xbc120256	-0.00891169
69	0x3da8034d	0.082037546
70	0x3ca25eb9	0.019820558
71	0xbd348390	-0.04407078
72	0xbcdf02c7	-0.027223004
73	0xbe320901	-0.17386247
74	0xbda84d75	-0.08217899
75	0x3e01d9e9	0.12680782
76	0xbcccf22e	-0.025017824
77	0x3e05491b	0.13016169
78	0x3e734018	0.23754919
79	0x3dd3a1de	0.10333608
80	0x3e4f0ca5	0.20219667
81	0x3dd46b2d	0.10372005
82	0x3dcfef92	0.10153116
83	0x3e568f39	0.20953073
84	0x3d071ad7	0.03298458
85	0x3da95cdb	0.08269664
86	0xbe2ec4a0	-0.17067194
87	0x3e42611e	0.1898236
88	0xbe2f7bbb	-0.17137043
89	0xbdeaa483	-0.11457159
90	0x3d8eff85	0.0698233
91	0xbddb4858	-0.10707158
92	0x3e2a2e21	0.1661916
93	0xbde77b3b	-0.11302801
94	0x3cafbf16	0.021453422
95	0xbe57d419	-0.21077003
96	0x3d9d7453	0.07688203
97	0x3e8222c6	0.25417155
98	0x3e31b75b	0.17355101
99	0xbe54b881	-0.20773508
100	0xbe3ae181	-0.18250085
101	0x3e303910	0.17209268
102	0xbe1118d5	-0.14169629
103	0x3e437c27	0.19090329
104	0x3d61dd60	0.05514276
105	0x3e5bb353	0.21455126
106	0xbe174051	-0.14770629
107	0xbe1a2b7c	-0.1505565
108	0xbdbc4727	-0.09193259
109	0xbe4ee3cc	-0.20204085
110	0xbd06b40a	-0.032886542
111	0x3de826cc	0.11335525
112	0x3e57151c	0.21004146
113	0x3a857f0b	0.0010184956
114	0xbdf762a1	-0.12079359
115	0x3e2a8984	0.1665402
116	0xbd1a7238	-0.037706584
117	0x3e21acdd	0.15788598
118	0xbc4fe133	-0.012687969
119	0x3d4a8708	0.049445182
120	0x3de705ac	0.11280379
121	0x3c6e691d	0.014551428
122	0x3de291a0	0.11062932
123	0x3dc1e71a	0.09467907
124	0xbe7806a4	-0.24221283
125	0xbd8a7800	-0.067611694
126	0xbc2078bd	-0.009794411
127	0xbd9f5e4f	-0.0778166
128	0x3e0a13b7	0.13484083
129	0x3da35c88	0.07976633
130	0x3dfc90bc	0.123322934
131	0x3c5c2fa9	0.013439097
132	0x3cb7aa80	0.022420168
133	0x3e2acdae	0.16680023
134	0x3c7b937c	0.015354987
135	0x3e1de7f1	0.1542051
136	0x3e2e323b	0.17011349
137	0x3c8fcf9c	0.01755505
138	0xbe19d9bf	-0.1502447
139	0xbdfb94e9	-0.12284262
140	0x3d8b35fe	0.067974076
141	0xbded656a	-0.11591609
142	0xbe1651a6	-0.14679584
143	0xbd1c6686	-0.03818371
144	0x3da1d2e2	0.07901551
145	0x3dd758ca	0.10514982
146	0xbd96d476	-0.073647425
147	0xbe0d5731	-0.13802792
148	0xbdb7b6cb	-0.08970412
149	0xbe060070	-0.13086104
150	0xbe18c1de	-0.14917704
151	0xbe0631b9	-0.13104905
152	0xbdab4bdd	-0.08364079
153	0xbd01beda	-0.03167615
154	0xbd7ebf3c	-0.062194094
155	0x3d2dfe84	0.042479053
156	0x3de08e6b	0.10964664
157	0x3e3973e0	0.18110609
158	0x3cdbbd74	0.026823737
159	0x3dea74db	0.1144807
160	0x3bffb564	0.007803606
161	0x3dadb74b	0.08482226
162	0xbe362df3	-0.17790966
163	0x3e368310	0.17823434
164	0xbe122042	-0.14270118
165	0x3ceca022	0.028884951
166	0x3d70c67c	0.05878304
167	0xbe016ffd	-0.12640376
168	0x3d361f06	0.04446318
169	0xbe2dd908	-0.16977322
170	0x3ba88e69	0.0051439297
171	0x3e5767ae	0.21035644
172	0x3d497904	0.049187675
173	0xbe355087	-0.177065
174	0xbdd4a903	-0.10383799
175	0x3d694a90	0.056955874
176	0xbd93405a	-0.071900085
177	0xbc2dfe9a	-0.010619784
178	0x3e21d0b3	0.15802269
179	0x3ce6cf10	0.028174907
180	0x3dbf3541	0.09336329
181	0xbdcc097f	-0.09962749
182	0x3d84fa4d	0.064930536
183	0x3d932baf	0.07186066
184	0xbdd62ba6	-0.10457544
185	0xbdcff012	-0.10153212
186	0x3e2dad45	0.16960628
187	0xbd6f413e	-0.05841183
188	0xbd8c9f27	-0.068662934
189	0xbd111d94	-0.0354286
190	0x3e0821c5	0.13294132
191	0xbbdab4d2	-0.0066743875
192	0x3e1080fe	0.14111707
193	0x3e6afc85	0.22947891
194	0xbe0e7cce	-0.13914797
195	0x3d95d4df	0.073159926
196	0x3d8f0da9	0.06985027
197	0x3ddbd8a8	0.10734683
198	0xbdb7c13a	-0.08972402
199	0xbd620b1b	-0.055186372
200	0x3d818c51	0.06325591
201	0xbe074969	-0.13211598
202	0xbe6232a7	-0.22089635
203	0x3e15f9bb	0.14646046
204	0xbdcef6f7	-0.101056986
205	0xbdbed62a	-0.09318192
206	0xbd02ce7e	-0.031935208
207	0x3da05ce6	0.07830219
208	0xbe512d6b	-0.20427482
209	0xbd4f5d96	-0.05062636
210	0x3d848449	0.06470544
211	0x3e177ac9	0.14792933
212	0x3e5b0056	0.21386847
213	0xbbd99d1c	-0.0066410434
214	0xbdcd1307	-0.10013395
215	0xbe16a844	-0.14712626
216	0xbe52def2	-0.2059286
217	0x3e210349	0.1572391
218	0xbcf72ab4	-0.03017173
219	0x3e4713be	0.19441125
220	0x3dd1e0cd	0.102479555
221	0xbe0e18ff	-0.13876723
222	0x3cd8d087	0.026466621
223	0xbdd7ac96	-0.10530965
224	0xbe16adfc	-0.14714807
225	0xbceed991	-0.029156478
226	0xbda51e72	-0.080624476
227	0x3e27dbeb	0.16392486
228	0xbe583bed	-0.2111661
229	0xbde49757	-0.11161678
230	0x3e759278	0.23981655
231	0xbe194ec1	-0.14971448
232	0x3e5ca9c0	0.2154913
233	0xbae99f24	-0.0017823917
234	0xbe3061fd	-0.1722488
235	0x3e16dd8f	0.14732955
236	0xbe2065a0	-0.15663767
237	0xbd1e0a0c	-0.0385838
238	0x3e8ca557	0.27469894
239	0xbe76c0af	-0.2409694
240	0xbe3d67dc	-0.1849665
241	0x3d9441d4	0.07239118
242	0x3d57b91b	0.052666765
243	0xbe1716ec	-0.14754838
244	0x3d7e7c66	0.062130354
245	0x3e453b86	0.19260988
246	0xbda5b2be	-0.08090733
247	0x3bd9739d	0.0066360966
248	0x3db3c52b	0.08777841
249	0x3d529358	0.05141005
250	0x3cf9f8cd	0.030514145
251	0x3e023ec8	0.12719262
252	0xbe390bf4	-0.18070966
253	0x3d9fa961	0.07795978
254	0x3da8c111	0.082399495
255	0xbe1de8e6	-0.15420875

onnx::Conv_95 f4 [32]
0	0x3e35baa0	0.17746973
1	0xbe2cd674	-0.16878682
2	0x3db896ca	0.09013136
3	0xbed4ff60	-0.41601086
4	0x3ea3cd1a	0.31992418
5	0x3ccc5441	0.02494252
6	0xbf1e70b3	-0.61890715
7	0xbf3f98f1	-0.74842745
8	0xbf0fc748	-0.56163454
9	0x3ec54779	0.38531092
10	0xbeca1e13	-0.3947607
11	0xbe8da6ef	-0.27666423
12	0x3d879446	0.06620078
13	0xbf37ce6d	-0.71799356
14	0x3f49c8c8	0.7882199
15	0x3f7b63d3	0.98199195
16	0xbe82f800	-0.25579834
17	0x3e9afc6a	0.30270702
18	0xbd18b9d4	-0.037286595
19	0xbf4ceba3	-0.80047053
20	0xbe31137f	-0.17292593
21	0xbf538fdc	-0.82641387
22	0xbef760cf	-0.48316047
23	0xbf227491	-0.63459116
24	0xbebe0f26	-0.37120932
25	0x3e48c738	0.19607246
26	0x3efe70ed	0.4969553
27	0x3db12a03	0.08650591
28	0x3f08fcfd	0.5351103
29	0x3f37536f	0.71611685
30	0x3f11c545	0.56941634
31	0xbe941b9c	-0.28927314

onnx::Conv_97 f4 [64, 32, 7]
0	0xbdb98db1	-0.090602286
1	0xbe29c313	-0.16578321
2	0x3dc2f93f	0.09520196
3	0x3d693aaf	0.05694073
4	0xbdeddc97	-0.1161434
5	0x3d6d2d45	0.0579045
6	0x3e1d2257	0.15345131
7	0x3e106228	0.14099944
8	0xbcb76307	-0.022386087
9	0x3c619f96	0.013770958
10	0xbdd74ca1	-0.10512663
11	0x3e4e4d3a	0.20146647
12	0xbda9961f	-0.082805865
13	0x3d300f64	0.042983428
14	0xbda06f45	-0.07833723
15	0xbdeba12a	-0.11505349
16	0xbd8b02a0	-0.0678761
17	0x3c722b40	0.014780819
18	0xbe2dbb1f	-0.16965912
19	0x3e023359	0.127149
20	0xbdd5c846	-0.1043859
21	0xbe6ca2f5	-0.23109038
22	0x3cd72d19	0.026266621
23	0x3d89053b	0.06690451
24	0x3cf002a3	0.029298132
25	0xbe7f3eff	-0.24926375
26	0x3bbfe889	0.005856578
27	0xbd947b52	-0.07250084
28	0xbe0f84cd	-0.14015503
29	0xbe185073	-0.14874439
30	0x3e694bbc	0.22782797
31	0xbd14b06d	-0.036301065
32	0x3e2dc06f	0.16967939
33	0xbd1f957c	-0.03896092
34	0x3dee8be7	0.11647778
35	0x3d11df24	0.035613194
36	0x3e5cab7d	0.21549793
37	0xbdf2ca01	-0.118549354
38	0xbe080cfc	-0.13286203
39	0xbde8daf3	-0.11369886
40	0xbcc416f7	-0.023936732
41	0xbe14ed34	-0.14543611
42	0x3e3b9a40	0.1832056
43	0xbd17437f	-0.036929604
44	0x3e0e186b	0.13876502
45	0xbdcf4981	-0.10121442
46	0x3e208973	0.15677433
47	0x3d8f1721	0.06986833
48	0x3d9ad74a	0.075605944
49	0xbdb1f19d	-0.08688662
50	0x3d8bdeeb	0.068296276
51	0x3ce2e9d0	0.027699381
52	0x3c5cc856	0.013475498
53	0x3c1a4db8	0.009417944
54	0x3dc223d0	0.09479487
55	0x3d97fc87	0.07421213
56	0xbdad02ea	-0.084478214
57	0x3d3561f9	0.044282887
58	0xbc288c7d	-0.010287401
59	0xbdaab127	-0.083345704
60	0x3e48d77b	0.1961345
61	0x3e078298	0.13233411
62	0xbcbf0ed7	-0.023322506
63	0x3e8e668d	0.27812615
64	0xbdb662a5	-0.08905534
65	0x3cfb9c1a	0.030714083
66	0x3e2a6d6a	0.166433
67	0x3e7e608a	0.24841514
68	0xbe590507	-0.21193324
69	0x3e040658	0.12893045
70	0x3ccf6e5f	0.025321184
71	0xbe6355dc	-0.22200722
72	0x3e6143d0	0.21998525
73	0xbd93760f	-0.07200252
74	0x3d48a85c	0.048988685
75	0xbe310d4f	-0.17290233
76	0xbe18c6db	-0.14919607
77	0x3df228f1	0.11824215
78	0x3d48dd40	0.049039125
79	0xbdff352b	-0.12461313
80	0xbd5ff70a	-0.054678954
81	0x3c756a04	0.014978889
82	0x3e0d047f	0.13771246
83	0xbda838a0	-0.08213925
84	0x3dd6a139	0.104799695
85	0x3d35425f	0.04425275
86	0xbbfe43bb	-0.007759539
87	0x3e1e9fb6	0.15490612
88	0xb9c2566d	-0.00037066956
89	0xbc87a66d	-0.01655885
90	0x3e1d0754	0.15334827
91	0xbe5d78e8	-0.21628153
92	0x3d91c0e7	0.07116871
93	0xbe02d9ed	-0.12778445
94	0xbe580919	-0.2109722
95	0xbe16105b	-0.14654677
96	0x3b3af17d	0.0028525286
97	0xbdc19f10	-0.09454167
98	0x3e4266f5	0.18984587
99	0x3e271f37	0.16320501
100	0xbd18e5c6	-0.037328504
101	0xbe14f696	-0.1454719
102	0xbd9d734e	-0.07688008
103	0xbe3e7fea	-0.18603483
104	0xbd4c0867	-0.0498127
105	0x3b678897	0.0035329217
106	0x3da70880	0.08155918
107	0xbd603be8	-0.05474463
108	0x3cf92c2a	0.030416567
109	0xbde66b26	-0.11250906
110	0x3e33c5db	0.17555945
111	0x3cd11e43	0.025527125
112	0xbd90afb2	-0.07064761
113	0xbc8e88c2	-0.017399196
114	0xbe037199	-0.12836303
115	0x3d8b02af	0.06787621
116	0x3d8c425c	0.068485945
117	0x3dcb77f9	0.09934992
118	0x3e26f386	0.16303834
119	0xbe69c169	-0.22827686
120	0x3e134b05	0.14384086
121	0x3dc4aa3c	0.09602782
122	0xbe7dd6ef	-0.24789022
123	0x3c5696c8	0.0130974725
124	0xbcdd5505	-0.02701808
125	0xbdb029a3	-0.086016916
126	0x3d80dda8	0.062922776
127	0x3c7c6126	0.015404021
128	0x3de56fe6	0.112029836
129	0xbe114eca	-0.14190212
130	0xbd55b816	-0.05217751
131	0xbd0a84b7	-0.033817973
132	0x3e12c734	0.14333802
133	0xbe0828cb	-0.13296811
134	0x3e2b43bd	0.16725059
135	0x3e5344c3	0.206317
136	0x3e3a92d5	0.18220074
137	0xbe464e46	-0.19365796
138	0xbe416366	-0.18885574
139	0x3c54ecf7	0.01299595
140	0xbdad931d	-0.08475325
141	0x3e5146cb	0.20437162
142	0x3d2396da	0.039938785
143	0xbdaec6ae	-0.08533989
144	0xbe8f500a	-0.27990752
145	0x3d8a3cef	0.067499034
146	0xbd42254b	-0.047398847
147	0xbdff304e	-0.12460385
148	0xbe345e64	-0.17614132
149	0xbe252e3a	-0.16130915
150	0xbe125867	-0.14291535
151	0xbdd00362	-0.10156895
152	0x3e4df3a8	0.20112479
153	0x3d201d73	0.039090585
154	0xbcc3cc7b	-0.023901215
155	0x3e1b3887	0.15158282
156	0xbd0b5b8a	-0.034022845
157	0xbd3ad720	-0.045615315
158	0x3e1d4ee8	0.15362132
159	0x3e2008c0	0.15628338
160	0xbc8b70a2	-0.017021481
161	0xbc4479f7	-0.011991969
162	0xbce7016d	-0.028198922
163	0xbe372cc7	-0.17888175
164	0x3d2a445b	0.041569095
165	0x3d32e814	0.04367836
166	0x3c252c4e	0.010081364
167	0xbd9a69c1	-0.07539702
168	0xbe04edd7	-0.12981354
169	0x3d2134f2	0.039357133
170	0xbdb7e436	-0.08979075
171	0xbe5833b5	-0.21113475
172	0xbde332f4	-0.11093703
173	0x3e22e536	0.1590775
174	0x3dffb432	0.124855414
175	0x3e81646b	0.25271925
176	0x3ccc0ef7	0.02490948
177	0x3bf8c35a	0.007591647
178	0xbd974e66	-0.07388
179	0x3de589e4	0.11207941
180	0xbe1b5a84	-0.15171248
181	0x3d27ad26	0.04093661
182	0x3d52be43	0.05145098
183	0x3d3eb7ca	0.046561994
184	0xbe802656	-0.25029248
185	0xbe337845	-0.17526348
186	0xbe6aeaa0	-0.22941065
187	0xbe5fa16e	-0.21838924
188	0x3e08fe22	0.13378194
189	0x3d211304	0.039324775
190	0x3da4122e	0.0801128
191	0x3e225c92	0.15855625
192	0xbdbee96d	-0.09321866
193	0x3d210b93	0.03931768
194	0xbd96bc9d	-0.07360194
195	0x3e3e6f69	0.18597187
196	0xbcc52ee2	-0.024070207
197	0x3d84823b	0.06470152
198	0x3de2c067	0.11071854
199	0xbdb1b2a9	-0.08676655
200	0xbe13e72f	-0.14443658
201	0x3e618571	0.2202356
202	0x3dccbd6a	0.09997065
203	0xbe814829	-0.25250366
204	0xbe77ff58	-0.242185
205	0xbc345766	-0.011007166
206	0xbd954984	-0.072894126
207	0x3aca08a0	0.0015413947
208	0xbdee88ce	-0.11647187
209	0xbe18f2bd	-0.14936347
210	0x3ebc222c	0.3674482
211	0x3cf77e7d	0.030211682
212	0x3c90d869	0.017681317
213	0x3da65032	0.08120765
214	0x3ca2d491	0.01987675
215	0x3c13889f	0.009004741
216	0xbd0e9fb4	-0.034820274
217	0xbd98da4a	-0.0746351
218	0xbd84ccee	-0.064844
219	0x3deb5e54	0.11492601
220	0xbde6df04	-0.112730056
221	0xbe51ff72	-0.20507601
222	0x3e3437b9	0.17599382
223	0xbe59f920	-0.2128644
224	0x3e8612e1	0.26186278
225	0xbbbbda28	-0.0057327934
226	0xbe427817	-0.18991123
227	0xbe58afe4	-0.21160847
228	0xbe0f630c	-0.14002627
229	0x3e2dc1d3	0.1696847
230	0xbe23b931	-0.15988614
231	0x3e639e48	0.22228348
232	0x3d4c43ce	0.04986935
233	0xbcf0e28d	-0.029404903
234	0x3e38483c	0.17996305
235	0xbd1c70a2	-0.038193353
236	0x3da8e6a4	0.08247116
237	0x3dddd9af	0.108325355
238	0x3d9d16f3	0.07670393
239	0xbde69346	-0.11258559
240	0xbd44529e	-0.047930352
241	0x3db9f12a	0.090792015
242	0xbe77cf1d	-0.24200101
243	0x3e0a284c	0.13491935
244	0xbeb6209a	-0.35571748
245	0x3e0bbf34	0.13647157
246	0xbe73365b	-0.23751204
247	0x3c5ac5d3	0.013352829
248	0x3d21e194	0.03952177
249	0xbe15cfef	-0.14630102
250	0xbe405dde	-0.18785807
251	0x3d9ea2f1	0.07745922
252	0x3d3a4ef2	0.045485444
253	0xbdcf754f	-0.10129797
254	0xbea1f8d8	-0.31635165
255	0xbb64508c	-0.0034838049

onnx::Conv_98 f4 [64]
0	0x3ea94595	0.330609
1	0x3f194637	0.59872764
2	0x3f15a43d	0.5845373
3	0x3e6c15d0	0.23055196
4	0xbf522d20	-0.82100105
5	0xbe692b61	-0.22770454
6	0x3ef4e52e	0.478311
7	0xbd7f3e60	-0.062315345
8	0xbe2df87b	-0.16989319
9	0xbfab04ba	-1.3360817
10	0x3ec138e2	0.3773871
11	0xbfa26e32	-1.2689879
12	0xbc2eb590	-0.010663405
13	0x3ebcaaeb	0.3684915
14	0x3e3620f1	0.17786004
15	0xbe33ca97	-0.1755775
16	0x3e70e622	0.23525289
17	0x3e3bd6e8	0.18343699
18	0x3f45466e	0.7706059
19	0x3f3942ab	0.7236735
20	0x3ede08d2	0.43366104
21	0xbf115a61	-0.5677853
22	0xbea3e37a	-0.32009488
23	0xbf318302	-0.6934053
24	0xbeeaee64	-0.45885003
25	0x3f127c78	0.57221174
26	0x3ecd2997	0.40070793
27	0x3e7b76c0	0.24557018
28	0x3ec04959	0.3755596
29	0xbd29be59	-0.041441295
30	0x3e7d1601	0.24715425
31	0xbf1b93af	-0.6077222
32	0xbe41ed5b	-0.189382
33	0x3f150556	0.58211267
34	0x3ef9dbfe	0.48800653
35	0x3f3d6de5	0.7399581
36	0x3f0e009d	0.55469686
37	0x3f07c34a	0.5303236
38	0x3e226055	0.1585706
39	0x3f34bd1e	0.7060107
40	0xbe236bfc	-0.15959162
41	0xbed21ef2	-0.41039234
42	0x3e4bf58d	0.19917889
43	0x3f1c0134	0.60939336
44	0xbe73f5c0	-0.23824215
45	0x3f7efbc1	0.99602896
46	0xbf8c9f6a	-1.0986149
47	0x3f08a77f	0.5338058
48	0x3ec93217	0.39296028
49	0x3e051cc5	0.12999256
50	0xbce9f497	-0.028559012
51	0xbbde0150	-0.006775059
52	0x3dcfbc88	0.10143381
53	0x3f088c10	0.5333872
54	0xbe946316	-0.28981847
55	0xbf58bffc	-0.84667945
56	0x3dc6ba70	0.09703529
57	0x3ef5c3bb	0.48000893
58	0xbf369d3f	-0.7133369
59	0x3db960ac	0.09051642
60	0x3f3f0e61	0.74631315
61	0x3f2c4b55	0.6730245
62	0xbdebfae7	-0.11522465
63	0xbf40b0ae	-0.7526959

onnx::Conv_100 f4 [32, 64, 7]
0	0xbd1c6223	-0.038179528
1	0xbce24f25	-0.02762563
2	0xbd1b0d87	-0.037854698
3	0x3d7fea5e	0.06247937
4	0xbd072e4c	-0.033003137
5	0x3a963213	0.0011459015
6	0x3d4a11c7	0.04933336
7	0xbb8de6f0	-0.0043305084
8	0x3c2ca651	0.0105377
9	0xbd2342c3	-0.03985859
10	0x3c7d9fec	0.015480023
11	0x3d37c234	0.04486294
12	0x3ce4bedc	0.02792304
13	0xbcd6fdc5	-0.026244054
14	0x3d09c7b3	0.033637714
15	0x3cf372ef	0.02971789
16	0xbcf67329	-0.03008421
17	0xbbd25f4e	-0.0064200526
18	0xbbad5b24	-0.005290406
19	0xba7a81e7	-0.00095561
20	0xbd09ba03	-0.03362466
21	0x3cdd8281	0.027039768
22	0x3b9d2a35	0.0047962912
23	0xbc9c4ef4	-0.019080617
24	0x3ba3123f	0.0049765403
25	0xbc890661	-0.016726675
26	0xbd2ded90	-0.042462885
27	0xbca26f3d	-0.019828433
28	0x3cef043a	0.02917682
29	0x3d030fbd	0.03199743
30	0xbcc30536	-0.023806196
31	0xbd268897	-0.040657606
32	0x3a91cd06	0.0011123724
33	0xbd029b86	-0.0318866
34	0xbc98dcea	-0.018660028
35	0xbc9fe349	-0.019517558
36	0x3d0c9059	0.03431735
37	0xbd14b81c	-0.036308393
38	0x3d749ca6	0.059719704
39	0x3c6d6544	0.014489476
40	0xbd45b472	-0.04826779
41	0x3c120625	0.008912598
42	0xbc0ebdea	-0.008712271
43	0xbca83ab8	-0.020535812
44	0xbca0652c	-0.019579493
45	0xbd643a22	-0.055719502
46	0x3b7f51fc	0.0038958779
47	0x3bb97625	0.005659836
48	0xbcf7192c	-0.03016337
49	0x3cb7a8ca	0.022419352
50	0xbcb87140	-0.02251494
51	0x3d4ebf80	0.050475597
52	0xbbc24222	-0.005928294
53	0xbcdf95ee	-0.027293172
54	0xbdb7f837	-0.0898289
55	0x3d21d280	0.03950739
56	0xbd7147f3	-0.058906507
57	0x3cade529	0.021227436
58	0x3d6bf28e	0.057604365
59	0x3a299d1f	0.0006470251
60	0xbd23c5fa	-0.039983727
61	0x3c84090f	0.0161176
62	0xbd66b844	-0.056328073
63	0x3bbd4181	0.005775631
64	0xbc57a669	-0.013162234
65	0x3d5bc705	0.053656597
66	0xbda8bff3	-0.082397364
67	0xbd2efcb2	-0.042721458
68	0x3c8594eb	0.016306361
69	0xbc5d1596	-0.013493916
70	0x3d1d76df	0.038443442
71	0x3c93c933	0.018040275
72	0xbd857c73	-0.065178774
73	0x3c127455	0.0089388685
74	0x3d8ee91e	0.06978057
75	0xbbde9869	-0.006793071
76	0x3b615019	0.0034380017
77	0xbc249d94	-0.010047335
78	0x3ba3cf93	0.00499911
79	0xbc2e041e	-0.010621099
80	0x3c768972	0.015047418
81	0x3c7a8401	0.015290261
82	0xbd72e660	-0.059301734
83	0x3d5241af	0.051332172
84	0xbd0395ee	-0.032125406
85	0xbbc3e194	-0.0059778187
86	0xbd670e19	-0.05640993
87	0x3d1f9355	0.038958866
88	0xbc603922	-0.0136854965
89	0xbbb14c90	-0.0054107383
90	0x3cb4829b	0.022034934
91	0x3cac7000	0.0210495
92	0x3d05ed51	0.032697026
93	0x3d58af9a	0.05290184
94	0xbd33a7de	-0.043861263
95	0x3c5211de	0.012821643
96	0x3d735211	0.059404436
97	0xbb80801f	-0.003921523
98	0x3c055d82	0.00813997
99	0xbd1171d1	-0.035508934
100	0xbd48fa20	-0.049066663
101	0x3adafa5a	0.0016706691
102	0x3b8b372a	0.0042485194
103	0x3cb6ca0d	0.022313142
104	0x3d15d3ed	0.03657906
105	0xbd26fa6d	-0.04076617
106	0x3cb4cc24	0.022069998
107	0x3d965e4e	0.07342206
108	0x3d62d469	0.05537835
109	0x3d76cd8e	0.060254626
110	0xbb3d90fd	-0.002892553
111	0xbcabdd34	-0.020979501
112	0xbcbac014	-0.022796668
113	0xbc1b7f33	-0.009490776
114	0x3d25b9fa	0.040460564
115	0x3d66fe97	0.05639514
116	0x3c35a4fa	0.011086697
117	0xbd3afa93	-0.045649122
118	0x3d3b4374	0.045718625
119	0x3cf6ac52	0.030111466
120	0xbd15b8bf	-0.03655314
121	0x3cca8e2f	0.024726002
122	0xbd77cd32	-0.060498424
123	0xbc78029f	-0.015137344
124	0x3c764919	0.015032076
125	0xbd0aebaf	-0.03391617
126	0xbd1a2414	-0.037632063
127	0x3d871961	0.065966375
128	0xbd21c92a	-0.039498486
129	0x3d84a652	0.064770356
130	0x3d18370f	0.037161883
131	0xbc15c2ba	-0.009140665
132	0xbceae9a4	-0.028675862
133	0xbc9c3ebd	-0.019072885
134	0xbce8f31c	-0.028436236
135	0x3d0f319b	0.034959417
136	0x3ca1c9c8	0.019749537
137	0x3c4daf70	0.012554035
138	0xbd1c01bb	-0.038087588
139	0xbd337360	-0.043811202
140	0xbd09511f	-0.03352463
141	0xbd06b828	-0.03289047
142	0xbcacd40d	-0.021097207
143	0x3beee50c	0.007290488
144	0x3cfabf47	0.030608786
145	0x3cfc55b4	0.030802585
146	0x3cc988d1	0.024601372
147	0x3c95ffe9	0.018310504
148	0x3d606216	0.054781042
149	0xb9a77d62	-0.0003194614
150	0x3bb97a5a	0.0056603374
151	0x3d448b82	0.047984608
152	0xbcf09757	-0.02936904
153	0x3d1b12ec	0.037859842
154	0x3c9a05eb	0.01880165
155	0xbd4690e0	-0.048478007
156	0xbceebfc7	-0.029144181
157	0x3d426637	0.04746076
158	0xbbad5255	-0.0052893558
159	0x3cedb3f8	0.02901648
160	0xbc7efb45	-0.015562837
161	0x3d6f5cc5	0.05843808
162	0x3d7212f6	0.059100114
163	0xbc579cf0	-0.013159975
164	0xbd2c58a5	-0.042076726
165	0x3d5e8a39	0.05433104
166	0x3ca26d06	0.019827377
167	0xbd577f37	-0.052611556
168	0xbd5f29d7	-0.05448326
169	0x3d81986f	0.063279025
170	0xbd125968	-0.035729796
171	0xbb999287	-0.004686657
172	0x3c983c14	0.018583335
173	0x3d001128	0.03126636
174	0xbb3c69ba	-0.0028749541
175	0x3cca9995	0.024731437
176	0x3c15f024	0.009151492
177	0xbd2fc49b	-0.042912107
178	0xbd006d7b	-0.03135441
179	0x3cc0b5d7	0.023524208
180	0x3ccd13eb	0.025033912
181	0xbd2ad2b5	-0.041704852
182	0x3d01607c	0.031586155
183	0xbd8b00dd	-0.06787274
184	0x3cab5408	0.020914093
185	0x39149d9c	0.00014173094
186	0xbcb0c05f	-0.021576105
187	0x3d7a590e	0.061120085
188	0x3cf71d25	0.030165264
189	0xbd64425d	-0.05572735
190	0xbd0ffb95	-0.035152037
191	0xbd162ff9	-0.036666844
192	0xbd41dd83	-0.04733039
193	0x3db328c1	0.087480076
194	0x3d2a03d5	0.04150756
195	0xbc795bb2	-0.015219616
196	0xbc86df77	-0.016463978
197	0xbcbb8475	-0.022890309
198	0xbb8c7f30	-0.004287623
199	0xbc10a6cd	-0.008828831
200	0xbceacaa1	-0.028661074
201	0x3cd947a7	0.026523424
202	0x3a56eed2	0.0008199039
203	0x3d05d69b	0.032675367
204	0x3bb46bbd	0.0055060075
205	0x3cfb2928	0.030659273
206	0x3c837f85	0.016052017
207	0x3d15dc10	0.03658682
208	0x3d1cb0f5	0.038254697
209	0x3c9d357e	0.019190546
210	0xbd28e447	-0.041233327
211	0x3c5647d5	0.0130786495
212	0xbaa6720a	-0.0012698781
213	0xbd17f99a	-0.037103273
214	0xbd803850	-0.06260741
215	0x3ac69eac	0.0015153489
216	0xbd62501c	-0.05525218
217	0xbd87c336	-0.066290304
218	0x3bd56422	0.006512181
219	0xbd3c2d58	-0.04594168
220	0x3d09ba4b	0.03362493
221	0x3c828d5f	0.015936552
222	0xbd572b90	-0.05253178
223	0xbcef486a	-0.029209334
224	0x3d1be472	0.03805966
225	0x3d19ee9b	0.037581068
226	0xbd8bd2bf	-0.06827306
227	0xbd8a524f	-0.0675398
228	0x3d0aae74	0.033857778
229	0xbc7245b2	-0.0147871245
230	0xbb988184	-0.0046541113
231	0xbc94c178	-0.01815866
232	0x3d371f90	0.044707835
233	0xbbeda8f0	-0.007252805
234	0xbd01b9e0	-0.031671405
235	0x3cbfa6d8	0.023394987
236	0x3b043087	0.0020170526
237	0x3d355955	0.044274647
238	0xbc05dac9	-0.008169838
239	0xbc5a82e9	-0.0133368755
240	0x3dc317d8	0.09526032
241	0x3d390c2a	0.045177616
242	0x3d300e77	0.042982545
243	0xbbd960aa	-0.0066338377
244	0xb8431536	-4.6511377e-05
245	0xbbd69978	-0.0065490566
246	0xbd44c954	-0.048043564
247	0x3c34c761	0.011033864
248	0xbd638557	-0.055547085
249	0x3c9c0069	0.019043164
250	0x3d88a7a7	0.06672602
251	0xbc22003f	-0.009887754
252	0x3d25792f	0.040398773
253	0xbce1faa3	-0.027585333
254	0xbd0e509a	-0.034744836
255	0xbd316f7b	-0.043319207

onnx::Conv_101 f4 [32]
0	0xbd328eb0	-0.04359311
1	0x3db04d1e	0.08608459
2	0x3e1c45e1	0.15261032
3	0x3dc6ec58	0.09713048
4	0x3bf9c800	0.007622719
5	0x3db00aac	0.085957855
6	0xbd003787	-0.031302955
7	0x3d0f3e12	0.034971304
8	0x3d9344a5	0.07190827
9	0x3df97d98	0.12182158
10	0xbe1d5ff6	-0.15368637
11	0x3d98a272	0.07452859
12	0xbd311750	-0.043235123
13	0x3d4a94be	0.049458258
14	0x3dd051ae	0.10171829
15	0x3dc7f39b	0.09763261
16	0x3e46b282	0.19404033
17	0xbce735c8	-0.028223887
18	0x3e0087d6	0.12551817
19	0x3debca75	0.11513225
20	0x3d6a1945	0.057153005
21	0x3ddcceca	0.107816294
22	0x3e34b8e0	0.17648649
23	0x3df3eb46	0.11910109
24	0x3e0672b5	0.13129695
25	0x3e81861c	0.2529763
26	0xbd815d5a	-0.063166335
27	0x3e5ce354	0.21571094
28	0x3e5482b8	0.2075299
29	0xbda5aa62	-0.080891386
30	0x3caf270c	0.021380924
31	0x3e91df2e	0.28490585
