Assets/Models/TCNAE_1_headAndGaze.onnx (onnx, 379537 bytes, 15 tensors)

fc_enc.weight f4 [10, 2752]
00000000: 8de1 8b3b 8ab0 0abd 16e5 9e3b 6742 55bc
00000010: 6f25 c53a 223f 4d3c 8977 c0bc fa39 07bc
00000020: 8ebe 6dbc 727f 9e3a 212f b83c bb7a 7d3c
00000030: c473 a03c db82 bfbc 6618 6fbc 895b 203d
00000040: 8223 39bd 94cb c43c c75e 3a3d 8b9d 09bd
00000050: 7c04 b03c 14ec 873c 5ad5 bb3a ab76 473c
00000060: be01 be3c 77d8 febb 0181 c138 bc9c 903b
00000070: b6ce c93c 4419 69bb 64d9 9c3a 56b9 f73c
00000080: 04ce 8fbc 4551 b9bb 2fde 563c 3fbd 763c
00000090: bd9f 26bb 16e3 943c 9d30 353c fda6 3fbd
000000a0: dcd7 443d aa69 dcbc 0f0c 403c b494 cb3c
000000b0: 5482 0ebc 95a6 213c 9c62 3c3d 0a98 373d
000000c0: a4b8 9cbc 0798 253b 507c 3ebc e582 31bc
000000d0: 2353 54bc 6550 1a3d c9cd 9dbb 2710 243a
000000e0: 55b1 f5bc 947f 4a3c c911 853c 44c7 0c3d
000000f0: de18 81bc e993 f5bc 7501 b3bc 0322 bb3b
00000100: 8fd2 4a3c 335c 293d b826 173c 715d 41bb
00000110: 7721 a73c f4c8 cebc 86fa 91bc ac84 4abc
00000120: 823b bbbb 3fb3 4e3c 32e5 b1bc 46dd 073d
00000130: 4c9e 193c c49b 38bb 9bc4 f63c 40d7 6bbc
00000140: 73b5 0cbc 2098 a63b 5aad 84bb 6006 93bc
00000150: bafd 9fbc 6f08 91bb e169 24bc 4ff8 4abb
00000160: 6f0c 01bc 03c6 55bc 6284 b9bb f404 23bc
00000170: b55e 3e37 452a bb3c 9234 da3b b06e 893c
00000180: 0586 11bb 3479 fbbb 6d3a 2f3c 98de c23b
00000190: f361 b43b d17a 723b 7296 edbb da1d 0038
000001a0: 36f1 6a3b e589 abba 39e1 013b 11c6 1b3c
000001b0: 9cf1 00bc b246 a3bb 15ab ca3b 3ed5 e73c
000001c0: af4c 0abc 4bb7 dbbb ffe1 e8bc c03d 69bc
000001d0: 0057 aeba 6d00 5fbc f97d 483c 2f03 41bd
000001e0: bc42 82bc 2400 803c 01df 333d 3d50 2eba
000001f0: e3e4 9cbc c3db febc 49e9 99bc 35bc d13c
00000200: 5272 70bc 619c a93b 585d 99bb 6d71 f2bc
00000210: 459e 8b3c 1f50 19bd 2238 b6bc 6742 04bc
00000220: a405 843c a1ca e83b 29d4 1a3b ec57 063d
00000230: 4a62 0fbd e73d a1bb d3ad 4a3b dbd4 6dbc
00000240: 7b83 48bc c10f 56bc 79f1 7abc 4fb9 b0bc
00000250: ee8d dd3a 107e 1bbc 9102 e1bc efef 293c
00000260: c369 63bb 8494 d8bc 330e 2b3d 0e54 17bc
00000270: 475d 8bbc 9378 29bd 24ef 9abb 01db ccbc
00000280: fc1e 4cbc 50bc 45bd 6f3d adbc ce0d d5bb
00000290: b301 a53c 312e c83c 7697 203c 10e8 6dbc
000002a0: ea16 26ba 184c cc3c ecac 94bd c73d d73c
000002b0: 7405 37bc 8b24 a33c cb4d 68bc 5c6f 40bc
000002c0: 78fc 57bc 31bf 703c 5d47 3c3c 4048 b43b
000002d0: 35bc 863d 05d9 f6bb a067 febc ef8f 9e3c
000002e0: 4580 3abc e510 f6bb 7e55 563a 7459 da3b
000002f0: 4734 cabb e56e 42bc 725a 6ebc c4a5 b5bc
00000300: 3547 4bbc df99 78bc ba0f 163c 7075 2d3c
00000310: 1ee6 453c be7a 08bd 7f82 13bc e6f5 533b
00000320: bad3 bebb b7a8 d93c 32d0 8a3c 0eed 393d
00000330: 6c20 9f3a 9952 18bc addd a93c 4627 c8bb
00000340: fb39 7ebc 63a3 4cbd 9457 a73c 9e6b 3a3c
00000350: 24e0 b73a e020 8b3c 5b88 10bc 2f6e f5ba
00000360: 8bf0 11bd cfa8 c9bc 0625 e3bc be77 18bc
00000370: 72a0 323c 1889 c83a 947d 78bb a2bf d1ba
00000380: 1fa9 debc ffe1 4ebc b8fe 8d3b 7683 4a3c
00000390: 3e6c 4ebc 7697 11bc b86f d8bc 943b 213c
000003a0: 0d78 733c c06b 7b3c 1b08 14bb 2b66 333c
000003b0: 167a ccbc 6bda 6ebc 092c 46bc 6a11 98bb
000003c0: ea73 e0ba 985f 10bc 8bd1 debc fd90 123b
000003d0: 1046 a13c 8440 d6bc d2b5 aebb b71e be3b
000003e0: 7496 853b c3ce 183b cadd 723c 0fc6 d83c
000003f0: 80f0 013d 7b57 d43b aaae 8dbc 5f93 e13c
0.004268831 -0.033859767 0.0048490865 -0.01301632 0.0015041063 0.012527259 -0.023494499 -0.008253569
-0.014510764 0.0012092425 0.02248341 0.015471156 0.019586451 -0.023377826 -0.014593219 0.039149795
-0.04519988 0.024022855 0.045500543 -0.03359751 0.021486513 0.016592063 0.0014330551 0.012174289
0.02319419 -0.0077772695 9.226986e-05 0.0044132154 0.0246347 -0.0035568038 0.0011966643 0.030239742
-0.01755429 -0.00565544 0.013114496 0.015059768 -0.0025424801 0.01817469 0.011058954 -0.04679011
0.048057422 -0.026905853 0.011721625 0.02485118 -0.008698065 0.009866376 0.04599248 0.04482273
-0.019131012 0.0025267617 -0.011626318 -0.01083443 -0.012959274 0.037674326 -0.0048157913 0.00062585104
-0.029991785 0.012359519 0.016243832 0.034369722 -0.015758928 -0.029977756 -0.02185128 0.0057108416
0.012379303 0.041347694 0.00922554 -0.0029505158 0.0204017 -0.025242306 -0.017819654 -0.012360733
-0.005713881 0.012615978 -0.021715734 0.033170007 0.00937612 -0.0028169015 0.030123046 -0.014394581
-0.008588183 0.0050840527 -0.0040489854 -0.017947376 -0.019530166 -0.004426054 -0.010035009 -0.0030970757
-0.0078765 -0.013047698 -0.005661533 -0.009949911 1.1346933e-05 0.022847304 0.006659099 0.016776413
-0.0022205126 -0.0076743606 0.010695082 0.0059469454 0.0055048405 0.0036999474 -0.0072506005 3.054538e-05
0.003584934 -0.001308736 0.001981808 0.009507672 -0.007870104 -0.004982793 0.0061849453 0.028299924
-0.008441134 -0.0067052 -0.028428076 -0.014235914 -0.0013301075 -0.013610941 0.0122370655 -0.047122177
-0.015900962 0.015625067 0.043913845 -0.00066495297 -0.01915211 -0.03111065 -0.018787997 0.02560244
-0.014675694 0.0051761125 -0.004680317 -0.029595101 0.017043242 -0.037429925 -0.022243563 -0.008072472
0.01611597 0.0071042334 0.0023624992 0.032798693 -0.035005845 -0.0049207094 0.0030926361 -0.014516081
-0.012238379 -0.013065279 -0.015316361 -0.021572737 0.001690326 -0.009490505 -0.027467044 0.010372146
-0.003470049 -0.026438005 0.04176159 -0.009236349 -0.017012252 -0.041374754 -0.004728215 -0.025006773
-0.012458559 -0.048275292 -0.021147458 -0.00650189 0.020142412 0.024436088 0.009801736 -0.01452066
-0.0006335812 0.024938628 -0.07259545 0.026274575 -0.011170734 0.019914886 -0.014178704 -0.0117453
-0.013182752 0.014694021 0.011491624 0.005501777 0.065788664 -0.007533195 -0.031055272 0.019355742
-0.011383121 -0.007509338 0.00081761915 0.0066634957 -0.0061707827 -0.01186726 -0.014547931 -0.02217377
-0.012407114 -0.0151734045 0.009159023 0.010587081 0.01207879 -0.03332018 -0.009003281 0.0032342612
-0.0058235796 0.026569707 0.016944978 0.04539209 0.00121404 -0.009297037 0.020735586 -0.0061081974
-0.015516753 -0.049960505 0.020427503 0.011378197 0.0014028591 0.01698345 -0.008821572 -0.0018724854
-0.03562979 -0.024616627 -0.027727615 -0.0093058925 0.010902511 0.0015299646 -0.0037916647 -0.0016002546
-0.027180253 -0.012627124 0.0043333434 0.012360444 -0.012599049 -0.008886209 -0.02642046 0.009840865
0.014860165 0.015345514 -0.002258784 0.010949652 -0.024960559 -0.014578442 -0.01209546 -0.004640748
-0.0017124389 -0.008811854 -0.027199527 0.0022364252 0.019686729 -0.02615381 -0.0053317333 0.0058020013
0.0040767733 0.00233166 0.014823386 0.02646163 0.0317235 0.006480155 -0.0172952 0.027536092

fc_enc.bias f4 [10]
00000000: 0542 76bc 4b36 123c 1b76 df3b 5c60 103c
00000010: d37c 40bc d76f 3fbc 01f0 a03c 92de 34bc
00000020: e53b 9fbb 3a9b d5ba
-0.015030389 0.008924077 0.006819499 0.008812036 -0.01174851 -0.01168438 0.019645693 -0.011039393
-0.004859435 -0.0016296871

fc_dec.weight f4 [2752, 10]
00000000: e9de 3bbd 78f4 2a3c caef 87be a8ca ca3d
00000010: 7e4b 8b3e 12e2 43bc 69bf 05be 09e0 58bb
00000020: c825 b2bd 8b4f 87bd d6f8 80be fd22 ecbd
00000030: d3e8 483e 844c 913e 29ec 683e 2679 dd3d
00000040: 8fe2 5e3e 28d6 ffbd c6b6 9ebd 84c7 1ebe
00000050: fdba 2c3e 58dd debd e4ea 0a3e 4ac4 6a3d
00000060: 09b3 65be eb44 7ebe 523b 1abd e4fc 4fbe
00000070: fac8 55be 5f25 ac3e fcb3 48bc 2414 153d
00000080: 00ea 53be 5e3a 853e bbd6 c7bd d8fb b8bd
00000090: 473d 8abe 6a32 813e 5297 cebc 96c8 473e
000000a0: 1e24 c43c a9c0 5d3d da71 4b3e 8091 8e3e
000000b0: 1832 2ebd c0ca 563e 0861 91be 084a 433d
000000c0: d44e b0be 747d bb3e eb64 8abe 5b7e 933e
000000d0: c370 9bbe b15f 9bbd 7762 61be 84f7 b2bd
000000e0: ed2c 1dbe 6851 9dbe 845d 37be 41a9 6abe
000000f0: d44c 91be e651 413d 4728 82bd 2448 993d
00000100: 61fb 633e 7e05 a2bd 6b0c b73e 6b1c 33be
00000110: 082c a53e 0c95 89bc 0a04 95be 8b95 e73c
00000120: 654a e6bc 55dc 273e 5926 95be e0e8 02be
00000130: eec6 2ebe f918 e5bb a460 923e f652 843e
00000140: 51e0 92be c50c 1fbe 0ef5 bb3d 8089 36be
00000150: 7b22 013e ca67 143d ac6f 1c3e a43d 613e
00000160: 0cd6 a4bd 2ffd 6abe 2496 0cbe cfc0 653e
00000170: 139f fcbd cb53 ddbd b3bd 49be 2a41 733e
00000180: 627b 7f3d 0452 1bbe b3ee 95be 135b 59be
00000190: eed6 b73d e881 22be fd78 bbbd be11 383d
000001a0: 3142 e3bd f435 2dbd a73a 933e f4b8 4c3e
000001b0: f837 efbd 9c04 5abe b43e 3cbe 134b 20be
000001c0: c83d 8bbe b0c8 a9be 75d7 5b3e 537f e23d
000001d0: 3c3f d9bd 783f 9a3e 315f b33d abd3 92be
000001e0: bb2b 0cbe d7ab 2b3e fd0d 50be a1f8 a13e
000001f0: 05e6 54bd c804 473e 812d 4cbc 5647 47be
00000200: b7bd c23d 1cc3 03be e936 dcbd d836 8f3e
00000210: 9441 b33e 8805 433d 46e3 1dbc 2ec1 64bd
00000220: d059 283d eb12 a8be 0711 333e 80a6 3b3e
00000230: 3a24 5f3d afa9 a33e 48b7 a23e f624 ebbd
00000240: d5af 023e d909 843e 04c2 803e 7f43 243e
00000250: acd4 523e a690 903d 3425 233e c0ec 8ebd
00000260: ef95 953d 95a3 91be 302d 023e 74bc 93be
00000270: c61d 7dbe fbdf 75bd a1cc 4a3e 7354 71be
00000280: 8b58 1bbe 61c8 2c3e f208 18be d051 38be
00000290: 4e9e 403e a6e2 7f3e f784 53bb 1eb7 9fbe
000002a0: c7b5 59be c743 b53d 916d c8bd 62c9 5d3c
000002b0: ca4f 503e cd9e dabd 11bc bd3d 8ba8 523e
000002c0: ada8 c8bd f79d 533d 416c 173e 5585 f3bd
000002d0: b2f6 2e3e 3d20 8e3d 1f22 63be f9e4 453e
000002e0: 63e9 81be fb6b 263e 8767 b0bc 5443 7b3e
000002f0: 7d38 5fbe f453 a23d 254a 303e cdd4 fd3d
00000300: eecc 0e3e eb7d 4bbe 56ce 8fbe 0e8d 8b3e
00000310: 950c 63be aa21 53be c03c 693e e19e ae3e
00000320: de5a f6bd a23a 983e 5bd5 e03d bba7 81be
00000330: b23d 90bd a467 98be 6d55 13be bf4a 84be
00000340: 08d5 36be 7285 653e e6ff 12be 160f b9bd
00000350: cabf 8cbe 26e5 8fbd f05d 213e 1756 a23e
00000360: 8e11 6cbe 39e2 96be ef2d 563e ffae 42be
00000370: 065a f4bd 630a 643e 6ff3 30be ba85 59be
00000380: f9e5 6e3e 4e5f 07be 3a37 69be 1b10 73be
00000390: c72d 7bbe 5f2e 6a3d e957 943e 628c 0a3d
000003a0: bbb8 853e b4bc 01be 0a39 d6bd 0bbc 863e
000003b0: 6f25 8ebe 5f09 c13c f72d 9a3e ff32 d2bd
000003c0: f57b 963d b105 9a3e 703b 113e 3b8a 063d
000003d0: ebad 89be 9388 183e 11b4 76be f60d 873e
000003e0: a8b2 abbe 7c97 693e adf8 27bd 210d 39be
000003f0: 1133 dc3d 1f24 753e cb37 1bbe 894e 8fbd
-0.04586688 0.010434262 -0.26550132 0.09901935 0.27206033 -0.011955755 -0.13061298 -0.003309252
-0.086986125 -0.066069685 -0.25189847 -0.11530111 0.19620065 0.2837869 0.22746338 0.10814123
0.21766113 -0.12492019 -0.07749705 -0.15505797 0.16868205 -0.10882062 0.13566166 0.057316102
-0.22431578 -0.24830978 -0.03765423 -0.20311314 -0.20877448 0.33622262 -0.012249943 0.03639616
-0.20694733 0.26021093 -0.097577535 -0.090324104 -0.26999876 0.25233775 -0.02521864 0.19510111
0.023943003 0.054138813 0.1986765 0.27845383 -0.042528242 0.2097578 -0.2839434 0.047678024
-0.3443514 0.3661915 -0.2703012 0.2880734 -0.30359468 -0.07586611 -0.22010218 -0.08738616
-0.15349169 -0.3072617 -0.17906767 -0.22916128 -0.28378928 0.047197245 -0.063553385 0.07484463
0.22263862 -0.07911204 0.35751662 -0.1749131 0.32260156 -0.016794704 -0.29104644 0.02826955
-0.028111646 0.16392644 -0.2913082 -0.12784147 -0.17068073 -0.0069915024 0.28589356 0.25844544
-0.28686765 -0.15532215 0.091776 -0.1782589 0.1261081 0.036231793 0.15276974 0.2199617
-0.08048639 -0.22948144 -0.13729149 0.22436832 -0.123350285 -0.10806998 -0.19701271 0.23755327
0.062373526 -0.15168005 -0.29283676 -0.21226148 0.089765415 -0.15869868 -0.09153936 0.044938795
-0.110966094 -0.04228778 0.28755686 0.19992429 -0.11680597 -0.21290821 -0.18383294 -0.15653639
-0.27195573 -0.33160925 0.21468909 0.110594414 -0.10607764 0.30126548 0.08758391 -0.28677115
-0.13688557 0.1676477 -0.20317836 0.31635 -0.051977176 0.19435418 -0.012462021 -0.19460806
0.095088415 -0.12867397 -0.10752661 0.2797153 0.3501097 0.047612697 -0.009636706 -0.055848293
0.041101277 -0.32826933 0.17486964 0.18325233 0.054477908 0.31965396 0.31780457 -0.11481659
0.12762387 0.25788763 0.25148022 0.16041373 0.2058894 0.070588395 0.1593216 -0.0697875
0.07303988 -0.28445116 0.1271255 -0.28854716 -0.24718389 -0.060028058 0.19804622 -0.23567371
-0.15170495 0.16873313 -0.14847162 -0.17999959 0.18810388 0.24988803 -0.0032275298 -0.31194395
-0.21260749 0.08850818 -0.09786523 0.013536783 0.20342937 -0.1067482 0.092643864 0.20572107
-0.09797797 0.05166432 0.1478739 -0.118906654 0.17086294 0.06939743 -0.22180985 0.19325627
-0.25373372 0.16252129 -0.02153374 0.24537402 -0.21798892 0.07926169 0.17215784 0.12394104
0.13945362 -0.19872253 -0.2808711 0.27256054 -0.22172768 -0.2061831 0.2277708 0.3410559
-0.1202905 0.29732233 0.10978194 -0.2532328 -0.070430174 -0.29766572 -0.14388056 -0.25838277
-0.17854702 0.22414187 -0.1435543 -0.090360805 -0.27490073 -0.070261285 0.1575849 0.31706306
-0.23053572 -0.2946947 0.2091596 -0.19012068 -0.11931233 0.22269587 -0.17280363 -0.21242419
0.23329915 -0.1321995 -0.22774974 -0.23736612 -0.24529181 0.05717313 0.2897332 0.033825286
0.261175 -0.12669641 -0.10460098 0.2631534 -0.27762935 0.023564039 0.30113193 -0.10263633
0.07347862 0.30082467 0.1418283 0.03284667 -0.268905 0.14895849 -0.24092127 0.2637784
-0.3353474 0.22811693 -0.04100864 -0.18071415 0.10751928 0.2393956 -0.15158002 -0.06997401

fc_dec.bias f4 [2752]
00000000: af6a 3ebe b7bc 0c3d 6515 c83d 7ae6 ebbd
00000010: a97a 6b3e 4f41 013e 41b1 3a3e 7be3 3ebe
00000020: bab4 813b 3cd9 883e c0a9 56bd 0a93 87be
00000030: df79 893e dbbb 8e3d b040 9e3e 823a 083e
00000040: 2d82 043e ba64 633e 3c68 d9bc eb3d 903e
00000050: e29d 363e dd22 c1bd 447b 623d 4609 8cbe
00000060: c19c 813e 56c4 623e 26c9 8f3d 9983 263d
00000070: 02cb 21be 1a15 27be 0b5a d43d 549d 02be
00000080: 2213 213e 2b08 cebd fa51 53be 447e 74be
00000090: 6d7e fdbd 3ebb 303e 8fa6 463c e041 06be
000000a0: d66e a43e 5d75 3d3d 2d18 85be fca7 35be
000000b0: 076e 373d c50f 80be 497a fdbd c762 83be
000000c0: 768c 5cbe 7d17 35bd e9ad 343e c883 da3d
000000d0: a261 40bd 1620 f0bb 2ec3 0ebe 6332 2f3a
000000e0: cad6 99be 7b39 3e3e 9be1 0b3d 92ac 853d
000000f0: a079 293d a894 9bbe f008 b53d 0fe2 d5bc
00000100: 1edf 4dbe d1fe 6fbd 8c4e 7b3e 8f86 793e
00000110: 1949 8bbd ac8d 07bd 7ba4 57be 8639 d63c
00000120: 7b66 a13c 8bc1 4cbd 79a9 68bc 77f0 7fbc
00000130: fdba 3b3c 8c8d 443d 4c71 f9bd 2cf4 37be
00000140: b1b6 903e 7909 a338 464b 7f3e 0946 2bbe
00000150: 069e 843e 9d3b 4abd 26a7 0dbe d54f 79be
00000160: 449b 72be 66f9 b53c e807 edbd 535d 8fbe
00000170: bf87 04be 6495 84bc a7bd 67be 2d7c 3f3d
00000180: 6fc5 9cbe 19a0 d93c 69b7 49be 9369 1abe
00000190: 79a8 5a3c 73ed 0d3e c495 813e 3ce4 3abe
000001a0: 09a5 5fbe d44c 853d 38e5 2abe 74e1 b23d
000001b0: 8264 703e 8c86 1cbd bd0a 25be 137f 68be
000001c0: 17a3 07be 972a 993e 7a09 7f3e 6ece 9dbe
000001d0: 0aa1 69be cd82 0abe 56ae cc3c 5eea a43e
000001e0: 6ad5 aabc c234 42bd 8199 9abe 504d c9bd
000001f0: 06d1 163e d341 bdbd 92d0 9cbd 8292 873e
00000200: 5122 43be 4745 2b3c 269a 8b3e 19ad 9f3e
00000210: 8042 a53e eeaa 48be 5c5b 923e b3b6 413e
00000220: b9a8 84be 7649 41be ae18 2cbe 6aa3 c0bd
00000230: 1826 aa3e 26bf 32be bf41 d3bd 107e 9e3e
00000240: 4d16 3c3e db3a 423b 1de0 84be 346d 9b3e
00000250: 0575 81be 916d 87be a5db 663e cb5c 96be
00000260: fa8d 1b3e f102 abbe e435 803e 2461 78be
00000270: 0aac e2bd dd01 593e 07fe 413e aa18 de3d
00000280: 7e04 29be 7268 fd3d 7945 8b3e 4419 753c
00000290: 0aaa ca3d e698 1abe 1e80 343e abcb 7e3e
000002a0: 21fc 44bc 7b9e 85bc e8dd 3c3e 871a 8bbe
000002b0: 2296 bcbd 6088 5abd 145b ba3c 41f5 4cbe
000002c0: b839 88bd cdeb a0be a58f 91be 0414 2dbc
000002d0: 87d8 fd3d 736b 0cbe 5294 66be 6284 15bd
000002e0: d0e8 79be f9bd 623e c7fa 803e 711b 1dbe
000002f0: 7e77 80be 6a52 9e3e f119 473e 13c3 b4bd
00000300: 7ada c7bd d827 be3c c084 533e 4938 80bc
00000310: 99c7 93be 31f4 16bd 5eb0 92be 29c4 9e3e
00000320: f62b a8bd 22f2 193d be72 80bd ebda 743e
00000330: 705e 743e bd2a 993c 9620 2ebe e26d 1f3e
00000340: cb32 02bd 215f d93d 1915 b33d 69bc 9d3e
00000350: 665f 803e 3736 1fbe 9c3a a33e c393 e63d
00000360: 8829 c0bd 2188 e03d 3dd0 a8be f7c5 be3d
00000370: 138c 2ebd 1e5c 49be fe79 8abe 194d 6dbe
00000380: e15d 5abe 13d8 5ebe dfe5 453e 1732 683d
00000390: c28f 94be 06bf 133e 3283 0abe 98e4 cd3b
000003a0: be4c e73c 4244 80be 6da1 8b3e 2d63 04bb
000003b0: 61b9 4d3e 0205 38bb c86b 30bc c3d6 993e
000003c0: 95d5 1e3e 76d6 283e e06f 45bd 6e6a 07be
000003d0: 7e2a 81be 564b 2c3e 5647 f33d 4cf2 2dbe
000003e0: 7442 d0bd f68e 753e 71d5 8b3e 6208 113d
000003f0: 9e32 473c 5967 913e 2e5b 58be 10f7 8fbe
-0.18595384 0.03435966 0.09769706 -0.11518569 0.2299601 0.1262257 0.1823168 -0.18641464
0.003958312 0.26728237 -0.05240798 -0.2647937 0.26850793 0.06969424 0.30908728 0.13303569
0.12940283 0.22206393 -0.02653896 0.2817224 0.17833665 -0.09430478 0.055293337 -0.27350825
0.25314906 0.22145209 0.07020788 0.040652845 -0.15800098 -0.16316643 0.10368737 -0.12755328
0.15729955 -0.10060152 -0.2063674 -0.23876292 -0.123776294 0.17258927 0.012124672 -0.13111067
0.3211581 0.046254504 -0.25995007 -0.17739862 0.044782665 -0.2501203 -0.1237684 -0.256613
-0.21537957 -0.044211853 0.17644466 0.106696665 -0.04696811 -0.0073280437 -0.13941643 0.00066832284
-0.30046684 0.18576615 0.0341507 0.06527056 0.041375756 -0.30386853 0.08839595 -0.02610877
-0.20104644 -0.05859262 0.24541682 0.24367736 -0.06801052 -0.033094093 -0.21058838 0.026150476
0.019702187 -0.049989264 -0.014200562 -0.015621296 0.011458156 0.047986552 -0.12179813 -0.17964238
0.28264382 7.77421e-05 0.24931058 -0.16725935 0.25901812 -0.049373258 -0.13833293 -0.2434686
-0.23692042 0.022213649 -0.115737736 -0.28000888 -0.12942408 -0.016184516 -0.2263094 0.046749283
-0.3061938 0.026565598 -0.19698872 -0.15079336 0.013345831 0.13860111 0.25309575 -0.18251127
-0.218403 0.065087944 -0.16689003 0.08734408 0.2347584 -0.03821425 -0.16117378 -0.22704725
-0.13245808 0.29915306 0.24905959 -0.30821556 -0.22815338 -0.13526459 0.024985474 0.32210058
-0.020853717 -0.047413595 -0.3019524 -0.09829199 0.14728174 -0.092410706 -0.07656969 0.26478964
-0.1905606 0.010453529 0.27266043 0.3118675 0.32277298 -0.19596455 0.28585327 0.1891735
-0.25909975 -0.1887568 -0.1680629 -0.09406169 0.33232188 -0.1745573 -0.103152744 0.30955553
0.18367882 0.0029637131 -0.25952235 0.30356753 -0.2528459 -0.2645078 0.22544725 -0.2936767
0.15190879 -0.33400682 0.25041115 -0.24255806 -0.1106797 0.21192117 0.1894456 0.10844548
-0.1650562 0.12373437 0.2720144 0.014959637 0.098957136 -0.15097389 0.17626998 0.2488238
-0.012023003 -0.016310921 0.18444026 -0.27168676 -0.09208323 -0.053352714 0.022748508 -0.20015432
-0.06651634 -0.31429902 -0.28429905 -0.010563854 0.12394815 -0.13712864 -0.22517517 -0.036503203
-0.24405217 0.22142781 0.25191328 -0.153425 -0.25091165 0.30922252 0.1944349 -0.0882627
-0.09758468 0.023212358 0.20656109 -0.015651839 -0.28863218 -0.036853973 -0.28650182 0.31009033
-0.0821151 0.03758443 -0.06271885 0.23911636 0.2386415 0.018697137 -0.17004618 0.1556926
-0.03178672 0.106138475 0.087442584 0.30807808 0.25072783 -0.15548025 0.31880653 0.11258652
-0.093829215 0.109634645 -0.32971373 0.093151025 -0.042614054 -0.19664046 -0.27046198 -0.23173942
-0.21324874 -0.21762113 0.1932597 0.056688394 -0.29015929 0.14428338 -0.1352661 0.006283354
0.028234836 -0.25052077 0.27271596 -0.0020200715 0.20090248 -0.0028079157 -0.010767885 0.30046663
0.15511163 0.1648806 -0.048202395 -0.13224193 -0.2522773 0.16825613 0.118788406 -0.1698696
-0.10168925 0.23980317 0.2731128 0.035408385 0.012158064 0.2839916 -0.21128532 -0.2811818

onnx::Conv_91 f4 [16, 1, 7]
00000000: 5035 093f fa5f 1a3c 4a62 3a3f 60a2 1a3f
00000010: 7eee b8bf 3557 0140 412a 50bf 0f0b a43f
00000020: a6dc 973e 499f b0be fb5a 86be 03d2 91bf
00000030: 4efa 993f fe03 e6bf 40b0 8abf d314 85bf
00000040: 0b78 743f 74fe 4cbf fa00 833f ba35 bfbf
00000050: 9319 023f 4661 a7be 993e a73e dc01 4bbf
00000060: 152f 1840 078e 7cbe a625 8dbf a8ec 4cbf
00000070: 7a16 96bf 6282 9c3d fafe 813f 2b8e dcbe
00000080: 2731 0340 5bc7 f53e 086c 2abf 649a 25bf
00000090: c25e e13d fa9a c93f ab69 dd3f 6321 5dbf
000000a0: c4d1 debb 62ba 2dbd f357 91be 08f7 8abf
000000b0: 8e26 b2bf 6a9f 9e3f 877a e7bc 6ecd ccbd
000000c0: 0396 46bf 06cb 88bf 0056 a1bf d1e0 22be
000000d0: f660 b2be 6c60 87bd a1ba a13f a98c 33bf
000000e0: 9971 eabe ce6f eb3f c0d2 85bf 93e6 a23f
000000f0: 891c 57be 3819 d8be 2330 9bbf 1140 01bf
00000100: ee31 8c3e 2d9e cebe afeb 8f3f 42c9 703f
00000110: bf60 c93e accf 8b3f fd06 cc3f dcf1 7fbf
00000120: 2f37 f0be 4720 2d3f 29b5 a8bf 3e78 69bf
00000130: d903 153f 0323 b3bf 08f0 b0bf 1553 aa3e
00000140: 1670 aa3e 05af 963f 66b9 80bf 8470 103f
00000150: dadb 863f f23b 513f b4ee 79bf c06d 4b3f
00000160: fd7a 51bf 24ae 5bbd 5a08 b63f 3cdd 493f
00000170: 2f5d a33f 41c3 97bf 7985 8b3f 48ee b2bc
00000180: 9c90 623f 109a e13d 9c5f c1be c620 44be
00000190: 59c9 febe cc20 38bf 01ea 33bf a1de 8bbf
000001a0: 4cc8 5d3e 2fdf b43f 8ad4 aa3e 98aa 0c3f
000001b0: 7fbe a83f 40f3 a23d 7efc 48bf 89e2 80bf
0.53596973 0.009422297 0.7280623 0.60404015 -1.4447782 2.0209477 -0.81314474 1.2815875
0.2966053 -0.34496525 -0.26241288 -1.1392215 1.2029512 -1.7969968 -1.0835037 -1.039698
0.9549567 -0.80075765 1.0234673 -1.4938271 0.50820273 -0.326914 0.32664946 -0.7929971
2.3778737 -0.24663554 -1.1027114 -0.8004861 -1.1725609 0.07642056 1.0155938 -0.43077216
2.049875 0.4800366 -0.6657109 -0.64688706 0.11004402 1.575042 1.7297872 -0.8637907
-0.0067999084 -0.042414077 -0.28387412 -1.0856638 -1.3918016 1.2392399 -0.028256668 -0.1000012
-0.7757265 -1.0686958 -1.260437 -0.15906073 -0.348396 -0.06610188 1.263508 -0.70136505
-0.45789793 1.8393495 -1.0454941 1.2726616 -0.21006979 -0.4220674 -1.2124065 -0.5048838
0.27381843 -0.40355054 1.12438 0.94057095 0.39331624 1.0922751 1.5939633 -0.99978423
-0.46917102 0.67627376 -1.3180286 -0.911991 0.58208996 -1.399506 -1.3823252 0.33266512
0.3328864 1.1772162 -1.0056579 0.56421685 1.0535843 0.81732094 -0.9762986 0.7946434
-0.8182829 -0.05363287 1.4221299 0.788532 1.2762812 -1.1856462 1.0900108 -0.021842137
0.88501906 0.11015713 -0.37768257 -0.19153127 -0.4976299 -0.71925044 -0.70278937 -1.0927316
0.21658438 1.413061 0.3336528 0.54947805 1.3183135 0.079565525 -0.7851027 -1.0069133

onnx::Conv_92 f4 [16]
00000000: e4cb 1cbf 7e95 7b3e ae05 2f3f 1e86 e73d
00000010: 03ac eabe 5541 29bf af9c 583f 4d45 4b3f
00000020: 923c 8e3c 8fd5 76bf 1999 833e 68bf fa3e
00000030: 0acd 37bf f9bf 80bf 454c 973f 8576 2dbf
-0.6124861 0.24568745 0.6836804 0.11304878 -0.4583436 -0.66115314 0.8461408 0.7940262
0.017362867 -0.96419615 0.25702742 0.48974156 -0.7179724 -1.0058585 1.1820151 -0.6775897

onnx::Conv_94 f4 [32, 16, 7]
00000000: 231b 0ebe 53c9 383e a5d8 37bd f306 4f3e
00000010: 3198 273d b4c6 033e 0171 d1bc 1bdb 15be
00000020: a106 1bbe f550 1dbe af2c 663e f99c 8cbe
00000030: 44d6 703d af44 283e 6e2b 78bd ab05 78be
00000040: a323 93be d4e1 863e 6187 c93d 1a02 cd3d
00000050: c709 633d f108 5c3e 55ee eabd deb7 af3e
00000060: 87ea ed3d e0c5 42bc 3acb c9bd 0ea4 c6bd
00000070: a39f 7bbd 1336 f03d bef2 8abe 4412 cf3d
00000080: 07d4 c3bd 20a0 07bd 1573 6ebe 71d5 053e
00000090: 3c66 35be a81d 143e deff 1f3e 3e24 aebd
000000a0: a4d6 febd c767 23be cd3f b53c 993e 5f3d
000000b0: b53b e2bd 3301 03be d68c 073e fe24 eebc
000000c0: b3a2 873e aa11 103e 3b3e 8d3d 9d8d 423e
000000d0: fe39 13be e763 ec3d 3224 023e 769e a4bd
000000e0: e47e eebd cb18 9dbd 38e7 0dbe dc82 81bd
000000f0: 488a 33be f420 2d3e 6e16 51bd e510 ffbc
00000100: 1d89 a63c cc2f 4c3d 7b2d a7bd 7461 2e3d
00000110: 9215 78bd 85cc 49be 21a0 1bbe 911d 5cbe
00000120: 2206 2f3e e997 5bbd 48d8 c7bd 47f9 61be
00000130: e5b2 073c 133b 183e e07f 393e 3d73 1f3e
00000140: afc0 e13d cfd8 29be b997 f5bd ab98 e03d
00000150: ff3a 70be 2eb7 303d cd80 4ebd 8b5b 4f3e
00000160: 3daa b6bd 84fb 81bd 2a2d 83be 4a41 93be
00000170: 6a06 5e3e 4124 143e 9184 303e eb77 14be
00000180: 3ef6 9cbd 9074 073c c4d4 2ebe ebe7 d3bd
00000190: a2c6 dbbd 66f3 5abe 7b58 c43d ae7d 1b3c
000001a0: c3a2 083e 3289 c4bc 2aef 3e3e 58ba 7b3e
000001b0: e42f eabd 038b 2f3e 086e 413d a3b1 0c3e
000001c0: 29eb 3abe ccc8 2dbe 2c8e a6bc 9e1b cc3d
000001d0: 5bfc 4bbe a671 68bd a8a2 823e e6a8 863d
000001e0: a5b9 10be 5135 083e 2e7c 6b3e 3199 2f3e
000001f0: 9a29 69bd 6b91 40be de63 fb3c f9da 9e3d
00000200: 6874 3f3e 9196 49bd 7aea 3e3e dd22 1ebb
00000210: 6600 d3bd b089 7f3e 3ed0 73be b05a 6c3e
00000220: 8240 f3bc e741 78be faa1 5c3e 5801 eb39
00000230: 337e 1b3d 49cd c53d 6221 893e 9f81 963d
00000240: 52b3 503d 0b3b 5f3e 1ebc 3dbe cced 1ebe
00000250: c843 a2be 1829 713e 698a da3d ed69 13be
00000260: bd1e 4bbd 3549 3cbe 6e36 6abc 44c0 ce3d
00000270: 57c0 77be 6cd2 52bd ac64 7bbe 741a 84be
00000280: 287d 403e 83fd f6bd fb86 093e bd25 583e
00000290: 936a 3a3e 59cf 063e 0ca8 c63d 258e 33bc
000002a0: d819 aebe 6a25 0fbe 2ae2 dcbc 7c5f 85be
000002b0: 09bb ea3d 4bdb be3c 3ae1 28be 2bf4 86be
000002c0: 4372 a73d c9a9 29be 9cf1 5e3e 74d9 0fbe
000002d0: 0d0d 493e b92b 933e af2c f23d e2e8 2bbd
000002e0: eefa d3bd eda8 3cbd 84f3 0abe bed1 4bbe
000002f0: de19 283e b35a f03d 38c9 f2bd f7ae 393d
00000300: f880 8c3d 253b 39be f656 863d c1e1 473e
00000310: 42eb 903c 0b66 0ebb dcb9 eb3d 7535 43bd
00000320: 69ae 55be 7f2c 473d 7bd1 7f3e 4647 093e
00000330: 4db2 363e 82f5 19be f2c4 503e 82a9 5fbe
00000340: feee ecbd 9126 16bd 7d8c 6dbe 9de6 44be
00000350: de5d 6b3e 5d7a c63d 5d1c 333e 0d42 5bbe
00000360: ac7b 34be 423d 1cbe 7921 21ba 7197 d6bc
00000370: e401 843e 6923 773c f4e2 48be be77 1e3d
00000380: 1a92 813c 5588 273e ba3c 073e db26 aebd
00000390: 7bc1 053e f511 cdbb 6ea8 4abe 17fc a1be
000003a0: 7797 a4be 0057 213d 5e4b 3e3d 4d85 25be
000003b0: 8cf0 4b3d 2b48 26bd 5d6d 1bbe 89ea 1d3e
000003c0: 79c0 ac3d 2c65 25be 9dc5 3a3e 378c 1fbe
000003d0: d505 963d c16e 3e3e fe1d 19be 658d af3e
000003e0: d9cb 233e 4386 413d 6e6f cebc eff9 17be
000003f0: 001b a1bd cba1 923e 148d 643e ca44 a63c
-0.1387754 0.18045549 -0.044884343 0.20217495 0.040916625 0.12868768 -0.02556658 -0.14634363
-0.15139247 -0.15362914 0.22477983 -0.2746351 0.05879809 0.1643245 -0.060588293 -0.24220912
-0.28738126 0.26344168 0.098402746 0.100101665 0.055429246 0.21487786 -0.114712395 0.34319967
0.11616998 -0.011887997 -0.098532155 -0.0969926 -0.06143154 0.11729064 -0.27138323 0.10110906
-0.095619254 -0.03311169 -0.23286088 0.13069703 -0.1771478 0.14464438 0.1562495 -0.085030064
-0.12443283 -0.15957557 0.02212515 0.054503057 -0.110465445 -0.12793426 0.13237318 -0.029070374
0.26491317 0.14069238 0.06896635 0.18999334 -0.14377591 0.11542492 0.1270912 -0.080380365
-0.11645296 -0.076707445 -0.13857734 -0.063237876 -0.17533219 0.16907102 -0.05104678 -0.031135986
0.020329053 0.04985027 -0.081629716 0.042573407 -0.060567446 -0.19706924 -0.15197803 -0.21495654
0.17092183 -0.05361167 -0.09758049 -0.22067748 0.008282398 0.14866285 0.18115187 0.15571304
0.110230796 -0.16586612 -0.119918294 0.10966619 -0.23460005 0.043143444 -0.050415803 0.20249765
-0.08919189 -0.06346801 -0.25620395 -0.2876075 0.21682134 0.14466955 0.1723807 -0.1449887
-0.076641545 0.008267537 -0.17073351 -0.10346969 -0.107312456 -0.21381912 0.09587189 0.009490414
0.13343339 -0.023991201 0.18645921 0.24582803 -0.11434916 0.17142873 0.047224075 0.13739638
-0.18253769 -0.16971129 -0.020331465 0.09966205 -0.19920485 -0.05674901 0.25514722 0.065751836
-0.14133318 0.13301589 0.2299659 0.17148282 -0.05692444 -0.18805473 0.030687269 0.077566095
0.18696749 -0.049215857 0.18644133 -0.0024129667 -0.1030281 0.24954867 -0.23809907 0.2308147
-0.029693846 -0.2424389 0.21546164 0.00044823694 0.03796215 0.09658296 0.26783282 0.07348942
0.050952263 0.21799867 -0.18528792 -0.155204 -0.31692338 0.23550832 0.10670931 -0.14395876
-0.04958986 -0.18387301 -0.014295204 0.100952655 -0.24194466 -0.051470205 -0.24550122 -0.25801432
0.18797743 -0.12060072 0.13430397 0.21108146 0.18204717 0.13165034 0.09700021 -0.010959183
-0.34004092 -0.13979116 -0.026963312 -0.2604941 0.114614554 0.023297926 -0.16492167 -0.2635816
0.081760906 -0.16568674 0.21771854 -0.14047796 0.19633885 0.28744295 0.11824929 -0.04197014
-0.103505954 -0.046059538 -0.13569456 -0.19904229 0.16416118 0.117360495 -0.11854786 0.045332875
0.06860536 -0.18088968 0.06559555 0.19519712 0.017690305 -0.0021728303 0.11510059 -0.047658402
-0.20867313 0.04862642 0.24982254 0.13406095 0.17841454 -0.1503506 0.20387629 -0.21842006
-0.11569022 -0.036657874 -0.23198123 -0.19228597 0.22985026 0.09691308 0.17491288 -0.21411915
-0.17625302 -0.15257743 -0.00061466504 -0.02619526 0.25782692 0.015084126 -0.19617826 0.038688414
0.015816737 0.163606 0.13206759 -0.08503505 0.13062088 -0.006258244 -0.19790813 -0.31637642
-0.32146809 0.03938961 0.046458595 -0.16164131 0.04978995 -0.04059617 -0.15178438 0.154215
0.08435149 -0.16151875 0.18239446 -0.15580831 0.07325331 0.18596937 -0.14952847 0.34287563
0.1599573 0.047247183 -0.025199618 -0.14841436 -0.07866478 0.28639063 0.22319442 0.020296473

onnx::Conv_95 f4 [32]
00000000: 0d14 af3d 4034 a53b 2f48 53be 65db 9fbf
00000010: e37c adbe 172e 23be 7e67 2bbf 8791 6a3f
00000020: fc23 213f 0e69 06bf 0bca 00bf 52de 20bf
00000030: f5e6 0b3f 6459 fcbe a2c3 12be ebeb 293f
00000040: 1bbb 97be 163c 5abe 5cb9 b73e 3c93 97bd
00000050: 6c8b ab3e 6538 a8be 90bb 19be 2a49 b73d
00000060: 61aa 42be cc6d 1a3f 4677 2bbe 4c35 f5bd
00000070: 6438 443e 6158 273e c5e4 253e a585 4ebf
0.08548746 0.005041629 -0.20633005 -1.2488829 -0.33884344 -0.1593555 -0.6695479 0.9162831
0.6294553 -0.5250405 -0.50308293 -0.62839234 0.5464929 -0.4928695 -0.1433244 0.6637561
-0.29634938 -0.21311983 0.35883605 -0.074011296 0.33504808 -0.32855526 -0.15012956 0.08949502
-0.19010307 0.60323787 -0.16744718 -0.11973056 0.19162136 0.16342308 0.1620055 -0.80672675

onnx::Conv_97 f4 [64, 32, 7]
00000000: 06d8 24be 7d34 083e 9c1a 443d bb91 ffbd
00000010: 5b7e 2ebc 0bd4 8fbe f8e3 9c3e 2d4e a4bd
00000020: 848b d8bd 1c4f 3abe 5710 303e 11ba 53be
00000030: 916b e83d 29d0 e5be a6fa 87bd 3ed4 8f3d
00000040: 07d3 5a3e a452 9b3d 0755 1b3e 2608 70bd
00000050: 560a 023e 4ed7 21be 9937 203e 2707 1a3e
00000060: c919 d6bd 37ba 513e 248f 793e 0b42 92bd
00000070: fd06 1fbc f7c7 60ba 78ce b63d 4c4e 263e
00000080: e5e4 0cbe 4205 05be 2fe7 4b3d 3288 81bd
00000090: a526 563e f6b8 403d 19a4 98be e2ea 26bd
000000a0: 4e09 1dbc 6110 8dbd e1cd 36bd a701 cd3d
000000b0: 05e1 90be 4642 11be ee06 b13d dd3a fcbd
000000c0: c73f c5bc 708e 2c3e b934 07bc bd68 73be
000000d0: e908 ec3d 9562 893d d8d6 c63b cc17 833d
000000e0: d45c 2dbd dbd5 4d3c c991 b1bd d21f 313e
000000f0: ed57 adbb 9afc 0bbc 6e17 ae3e c2dc 14be
00000100: 5d97 49be 07d8 0c3e 81cd d03d a3b7 1c3e
00000110: ba3a 19be af61 2a3e de4a 8dbc 665b a63d
00000120: 4da1 1bbd ba14 2c3e 48f8 1f3e fdf0 173e
00000130: 2a62 f7bd 2e30 7c3d 25fe ba3c 52d8 0fbd
00000140: 72e8 0c3e 7697 a03d ecd9 0abe 35c8 723e
00000150: b4fb 6a3e 2400 3fbe 66c1 003c dc0f f83d
00000160: eece 7d3e 3079 42be 9fe5 4ebc 9f7a 02be
00000170: 1710 ffbd 4182 e2bd 7ffd a13e 5830 23be
00000180: 17fe 71bd 8790 4dbe d6ae b03d 564b ba3d
00000190: aaaf afbd 090f c53b 9e3f 153e 6f19 093e
000001a0: ef7f 38be dc9b 2c3e 2ab8 7e3b f5ad 14bd
000001b0: 0f2c 493d 0ba2 a7bd c606 f73d f4ef 2abc
000001c0: 2294 843d 2b6c dabc e1aa 8ebe 7106 e3bc
000001d0: 587f a73d 99aa 123d 9cbf fbbd 17b6 f1bb
000001e0: 4e03 7fbe e8c5 17be ed0c bdbd b5a8 713d
000001f0: 9c20 813e dcb2 1abe a981 45be e1bb 8dbe
00000200: e2b7 5d3c b139 443e fcea ad3d 6a45 a8bd
00000210: ae1a 663e bb43 cabd ef79 483e 833c c1bc
00000220: 9686 00bd 9945 ab3d 20bb a73d 7344 51bd
00000230: 7044 9fbd 0566 d63d 5c32 06be 3e8f d9bc
00000240: 80ed 0f3d 7e7d 473e 4999 1fbc 1ca3 c2bd
00000250: f577 29be cc9e a8bd e7ed c0bd 45cc a93d
00000260: 4058 f5bd b3c9 8fbe 8280 303e 0319 cabd
00000270: 61e2 d2bd 4f08 e3bd 26cc 823d 7c1b 88be
00000280: 80d6 a83d 8f95 b23c 234d aabd efeb f93d
00000290: 8f0b 0bbc ab15 dc3d f657 33be 4fab 3fbe
000002a0: cd28 b33d fdaa 80be 7450 3d3e af79 d53d
000002b0: a88e 8fbc 282e db3d 2a79 15be ff03 7cbd
000002c0: 9f48 bcbd b831 8cbe 8f0e 61be af67 29be
000002d0: 747c 2a3e d105 673e d11c 193e 497d a0bd
000002e0: 02c1 17be 5de1 1a3c 2b40 f4bc bc69 38bd
000002f0: 9952 05be 8bbe 6a3d 5865 a4bc 654e 40bc
00000300: 2bc8 87bc 016d af3c 968b 14bc 4843 48be
00000310: bae5 93be 688e 91be cdb6 96bb 1729 8abd
00000320: 731c 21bd 6793 5fbe 1c97 b33d 90c5 313e
00000330: c355 29bd 52a1 5d3d 5699 12be 9d56 ef3b
00000340: 98ed 02be 8de7 03be f76b 77bc ff23 4abd
00000350: ca58 1cbe 7139 233e 86a5 273c 488f e73c
00000360: fe68 5d3b 1237 2abe af35 f73d 158e 873e
00000370: 4109 4e3d 69b6 3c3e 354e 773d 7178 a13d
00000380: 8d7b 52bd 49b9 e23c 0040 7bbe ebeb 81bc
00000390: 362c 02be b64c 2cbe fa96 0bbe 8b12 5fbe
000003a0: b1d6 993d 1c10 b03d 507c fcba 887a f2bd
000003b0: 2ac5 2a3e b2ff 9b3d c66f 40be d488 07be
000003c0: e022 bebc f738 d83c 3e40 16be f0ee b93d
000003d0: 5d79 17be 6e74 9b3d 6c43 babd 81ea 033e
000003e0: a506 083e 2431 8bbb b51b 3b3e fc9c d03d
000003f0: 7c8f cb3d d176 dcbd a23e 9f3d 6746 e03d
-0.16098031 0.13301273 0.04787694 -0.12478968 -0.010650243 -0.28091463 0.30642676 -0.08022723
-0.105734855 -0.1819424 0.17193733 -0.20676447 0.11348642 -0.44885376 -0.06639604 0.07022904
0.21369563 0.07584122 0.15169154 -0.05860152 0.12699255 -0.15804788 0.15646209 0.15041791
-0.10454137 0.20481192 0.2437101 -0.07141503 -0.009706256 -0.0008574719 0.089260995 0.16240805
-0.13759191 -0.12990287 0.04978102 -0.06324805 0.20913179 0.047051392 -0.29812697 -0.040751345
-0.009584738 -0.0688789 -0.044629935 0.10010081 -0.28296676 -0.14185438 0.086439 -0.12315915
-0.024078263 0.1685121 -0.008252316 -0.23770423 0.11525137 0.06708256 0.006068092 0.06401023
-0.042324856 0.012563194 -0.086703844 0.17297295 -0.0052900226 -0.008544112 0.3400225 -0.14537337
-0.19686647 0.13754283 0.10195447 0.15304427 -0.14963809 0.16638826 -0.017247614 0.081229016
-0.037995625 0.16804782 0.15622056 0.14838023 -0.1207927 0.061569385 0.022826264 -0.03511841
0.13760546 0.07841389 -0.13559693 0.23709185 0.2294758 -0.18652397 0.00785861 0.121124
0.24785969 -0.18991542 -0.012627988 -0.12742089 -0.12454241 -0.1106 0.31638715 -0.1593641
-0.05908021 -0.20074664 0.08627097 0.090964004 -0.08578427 0.006013755 0.1457505 0.13388608
-0.18017553 0.1685633 0.0038867095 -0.03629871 0.049114283 -0.08185204 0.12061839 -0.010433186
0.064735666 -0.026662907 -0.27864745 -0.027713032 0.08178586 0.035807226 -0.12292406 -0.007376443
-0.24903604 -0.14821589 -0.09230981 0.058998782 0.2522019 -0.15107292 -0.19287743 -0.27682403
0.013532611 0.19162633 0.08492085 -0.08216365 0.22471115 -0.098762 0.19577764 -0.023588425
-0.03137835 0.08362884 0.08189988 -0.05109067 -0.07776725 0.104686774 -0.13105148 -0.026557561
0.035138607 0.19481465 -0.009741136 -0.09503767 -0.16549666 -0.08233413 -0.09420376 0.082909144
-0.11979723 -0.28083572 0.17236522 -0.09868052 -0.102970846 -0.11085569 0.063865945 -0.2658347
0.08244038 0.02179983 -0.08315494 0.12203204 -0.0084866425 0.1074632 -0.17514023 -0.18717693
0.087480165 -0.25130454 0.18487722 0.104236 -0.017524078 0.10702163 -0.14597002 -0.06152725
-0.09193539 -0.27381682 -0.2197821 -0.16543458 0.16649038 0.22560813 0.14952399 -0.07836396
-0.1481972 0.009453145 -0.029815754 -0.04502271 -0.1301979 0.057310622 -0.020067856 -0.011737441
-0.01657494 0.021414282 -0.009066483 -0.19556916 -0.28886205 -0.2842896 -0.0045994283 -0.067461185
-0.039333772 -0.21833573 0.08769056 0.1736052 -0.041341554 0.054108925 -0.14316306 0.0073040263
-0.12785947 -0.12881298 -0.015101424 -0.049350735 -0.15268245 0.15939881 0.010232335 0.028266564
0.0033784504 -0.1662257 0.12070786 0.26475587 0.050301794 0.18428959 0.06037732 0.078843005
-0.05138736 0.027676241 -0.24536133 -0.015859565 -0.12712178 -0.16826138 -0.13631812 -0.21784417
0.07511652 0.085968226 -0.0019263122 -0.11839777 0.16676775 0.076171294 -0.18792638 -0.1323579
-0.02320999 0.02639435 -0.14672944 0.09078777 -0.1479239 0.075905666 -0.09094891 0.12882425
0.13283785 -0.0042478014 0.18272288 0.101861924 0.09939477 -0.1076485 0.07775618 0.10950928

onnx::Conv_98 f4 [64]
00000000: eb48 983e 40f8 ec3d 90e6 4a3b 5ce1 5dbe
00000010: 2a41 473f 3ea4 2dbe 84a7 703c 53f6 4f3e
00000020: f33d cd3d 1ad4 9cbe 1bbe 1bbf 653b 20bf
00000030: 349a 323f 51eb 553f 7db5 4b3f 00a5 ff3d
00000040: 4a1b 0cbf e357 933e d227 e93d 8b36 8ebe
00000050: f0a2 c9bb 9c0c 1d3d da37 14bd 7bbf e73e
00000060: 2914 c33e edd9 3a3d 80b9 40bd fe72 1cbf
00000070: 877b 0abf 6f73 07be 07e3 40be ceae 283f
00000080: 10f8 cfbb a6aa 0bbf 3581 42be b1bb 23bf
00000090: 672d ba3e 04ec 7e3d 0d90 ee3e 2143 5f3f
000000a0: b67d bdbd acf8 34bf 3f64 0d3e 89d0 a9be
000000b0: 8256 353e d25c f03e 16f5 0b3d cea3 50bf
000000c0: f8a3 4d3f ca35 24bf 4012 de3e b68f af3e
000000d0: 45bf 00bf 3a73 7bbd f5fd e93e 3d86 5bbe
000000e0: f90f 033f f02f 3f3f 1bca 1f3e c614 73be
000000f0: a838 243d 64b4 623d 2c02 b23e 4810 023f
0.29743132 0.115707874 0.003096018 -0.21667999 0.7783381 -0.16957185 0.014688376 0.20308809
0.100215815 -0.3063057 -0.6083695 -0.6259063 0.69766545 0.8356219 0.79573804 0.12482643
-0.5472914 0.2877799 0.11384548 -0.27775988 -0.006153457 0.038342103 -0.036186077 0.45263276
0.38101318 0.045617986 -0.047051907 -0.61112964 -0.5409474 -0.13227628 -0.18836604 0.6589173
-0.00634671 -0.54557264 -0.18994601 -0.6395827 0.36362764 0.0622368 0.46594277 0.87211806
-0.09252493 -0.70691943 0.13807772 -0.33166912 0.17708781 0.46945816 0.03416928 -0.81499946
0.8032832 -0.64144576 0.433733 0.3428933 -0.50291854 -0.061389185 0.45701566 -0.21437927
0.5119625 0.7468252 0.15604441 -0.23738393 0.040093094 0.055347815 0.34767282 0.50806093

onnx::Conv_100 f4 [32, 64, 7]
00000000: 31a4 8ebb e61b 3fbd d7db 50bd d033 a2bb
00000010: 0488 24bc 4378 023d 5c9b 983c 6b39 05bd
00000020: 087f 993d cdb3 0fbc ce4d 5ebd a5a5 813d
00000030: 0693 8e3d 5278 8ebc 12c8 453d 8dec d9bc
00000040: bd11 1cbb c359 f6bb 8d7e ff3c 3e63 123d
00000050: 963f b53c 8577 0a3d 70b1 55bc beb4 dcbc
00000060: d3a0 a3bc 2a83 81bc 78c0 92bc 8ca8 223d
00000070: 3e12 633d d491 0abd c3c1 f33c 6e5a 643d
00000080: 112c 58bd acca 943c 66cf 263d 7eed c73c
00000090: f517 153d a660 d73c b42c e0bb 4a1c 563d
000000a0: d32e f03c e93a d5bc c29b 553c 6bd3 5f3d
000000b0: 07cd 373d bcc9 053d 2fec 92bd cf96 d73c
000000c0: 90e2 d2bb f25f 41bd 1e8f 7a3d 6d90 28bd
000000d0: a3c7 be3b 179c a4bc 9507 f1bc 6e78 a63c
000000e0: 206a 66bd 0af5 debc 7d6f 233d b2c5 a4bb
000000f0: eb1b 72bc f121 883a baac 683c 876a 97bd
00000100: 1cce bc3c aa4d 92bb fef7 853b 3cc2 153d
00000110: 3605 573d 061a 043d c841 4c3d 7281 e23c
00000120: f32c 42bc 6eb5 17bc b837 94bb fdeb b8bc
00000130: a650 00bb 7f11 463d 503a 3abd 12c9 56bd
00000140: 822d 5cbc 0efa 26bd 2df0 93bb 93f3 983c
00000150: a3d7 b6bb 691e d13b 8079 033c ac5f a0bb
00000160: 3038 763d b92d 1e3c db2a bbbc 1bd9 863d
00000170: bbea 12bd 1d59 d6bc 0b1a 78bd 21e9 b03c
00000180: bc39 3cbd 6b10 0e3d 18ef 16bc a3db 7abd
00000190: 44e3 003d 1053 043c b7e1 9a3d 0b4a c23c
000001a0: 649c 4d3d 696e 4cbd 4170 60bc f3d2 053d
000001b0: 62cb 09bd 51b3 28bc e48a debc ba20 97bc
000001c0: 58a0 75bd d9ae adbd 0037 17bc f68b 4cbd
000001d0: 98d9 4f3d ee98 6a3d 930b 4b3d 1fe6 1c3b
000001e0: b818 e63d 299b 3ebc 03a9 523c 3984 7dbc
000001f0: e708 c9bc 39f8 9e3c 640e e53b 92c6 8cbd
00000200: 69da 7ebd 662d 9f3c d847 09bc 289c a03d
00000210: 6112 28ba fcf1 493b 667f c83c 2e70 c53b
00000220: 26e0 903d 5232 603a e6ca 523d 95f3 99bc
00000230: ce73 09bd 64d1 52bd 3010 2c3c be8d 2a3d
00000240: e958 09bd d175 723c ebce b9bc 012c 23bd
00000250: 8e5e 233d 8ecc 19bc d8ad 01bc 33bd e33c
00000260: 19a5 df3c 8a75 d5bc f2f3 d83c beb9 98bc
00000270: faef 2fbd cc64 0bbd 277a 863c 0a95 0b3d
00000280: ee85 c4bc 8a97 b5bb f211 3b3c 15e6 f93c
00000290: cb59 bcbd ae44 e03c 8418 133c 5d7e 1abd
000002a0: 5d4b 28bd a366 ce3c 63d9 d8bc f67f 20bd
000002b0: 7d13 98bc 9190 3bbd b23f 5dbd a9b6 fa3c
000002c0: 0b4a 013d a2fa 8bbd ed56 8ebd f7d8 2d3d
000002d0: 7309 e73c 34aa 8abc b27a 2f3d 6bcb 3abd
000002e0: b8a0 c33c 9819 2fbd 16a1 253d 766a f83c
000002f0: f692 803c 0bb0 f93c 559d b73c 28ed e4bc
00000300: c21c c8bd 1407 7b3c 55cb 653d 5141 8b3d
00000310: 686e 40bc ba4a f13c bb89 17bd 4b72 da3c
00000320: 8121 16bd b76f 4bbc cd00 073d 6ec4 1ebc
00000330: 6c9a a33c 5284 323b 4c5a d7bc 47c7 55bb
00000340: 4b13 41bd 08df 0b3c a895 1b3d 8113 113d
00000350: 71ef bc3c 1606 58bd d5f6 153d e37c 58bd
00000360: d3dc 78bc a86c f7bc d580 04bc 3cd8 c73c
00000370: 4e2a 7fbd b966 a0bc 5fd0 62bd 3c04 9fbd
00000380: 6c85 293d 3176 14bd 15ed 2b3d ed81 f8bc
00000390: 5cd5 803c cad9 083d 4422 bd3c 76c0 2a3d
000003a0: 6781 db3c d5f7 0abd 4f35 7dbd 97b6 103d
000003b0: 9c74 203b 845e a73c e970 ad3c 9915 05bd
000003c0: b59e e73c ee7d b83b 5262 2b3d 232f 853a
000003d0: ad98 0a3d ae9b e03d 73fa a73c b7f7 28bd
000003e0: 97c4 bb3c 6ed2 123c 70e2 54bd 61a0 813d
000003f0: d688 893d ac35 f03c 41a3 acbb 4ac8 21bc
-0.0043530692 -0.046657465 -0.050990906 -0.004950024 -0.010042194 0.03185297 0.018628769 -0.03252546
0.074949324 -0.008770895 -0.05427342 0.06330422 0.06961636 -0.017391358 0.048286505 -0.026602054
-0.0023814284 -0.0075180246 0.031188274 0.035739176 0.022125047 0.03380539 -0.013042793 -0.026941653
-0.019974148 -0.015809614 -0.017914042 0.03971152 0.05543732 -0.03383048 0.029755479 0.055750303
-0.0527764 0.018163048 0.040725134 0.024405237 0.0363998 0.026291203 -0.0068412665 0.052273072
0.029319203 -0.026029067 0.013037624 0.054644983 0.044873264 0.032663092 -0.07173955 0.026317028
-0.0064356998 -0.04721064 0.061171643 -0.04115336 0.0058221384 -0.02009396 -0.02942256 0.020321097
-0.056253552 -0.027216453 0.039901245 -0.00502845 -0.014777164 0.0010386092 0.0142013375 -0.07393365
0.0230475 -0.0044648247 0.004088401 0.03656219 0.052495204 0.03225138 0.04986742 0.027649615
-0.011851537 -0.009259565 -0.0045232438 -0.022573465 -0.001957932 0.04835653 -0.045465767 -0.05243785
-0.013438584 -0.040765814 -0.004514715 0.018670833 -0.005579905 0.006381799 0.008024573 -0.0048942175
0.06011218 0.009654456 -0.022847584 0.06584378 -0.035868388 -0.02616554 -0.06057171 0.02159554
-0.045953497 0.034683626 -0.009212278 -0.06124462 0.031466737 0.008076444 0.07562583 0.023716947
0.050197974 -0.049909983 -0.013698638 0.03267188 -0.033641227 -0.010296659 -0.027165838 -0.018448222
-0.05996737 -0.08480615 -0.009229422 -0.049938165 0.050744623 0.05727475 0.049571585 0.0023940874
0.112351835 -0.011633673 0.012857678 -0.015473419 -0.024540378 0.019405471 0.006990241 -0.06873812
-0.06222001 0.019430827 -0.008378945 0.078422844 -0.000641143 0.00308144 0.02447481 0.0060253358
0.07074003 0.000855242 0.05146303 -0.018792907 -0.033557706 -0.05146922 0.010501906 0.041639082
-0.033532057 0.014798597 -0.022681674 -0.039836887 0.039885096 -0.009387149 -0.007914983 0.027800178
0.027300404 -0.026057024 0.02648351 -0.018643256 -0.04295347 -0.034031674 0.016415669 0.03407768
-0.023989644 -0.0055417465 0.011417853 0.03050522 -0.09196814 0.027376499 0.008978013 -0.037718166
-0.041087497 0.025195425 -0.026470846 -0.039184533 -0.01856398 -0.045792166 -0.054015823 0.030604677
0.031564754 -0.06834914 -0.069501735 0.042443242 0.028202748 -0.016926862 0.04284162 -0.04560415
0.023880348 -0.042749017 0.040436827 0.030324202 0.015695076 0.030479452 0.022413889 -0.027945116
-0.0977111 0.015321512 0.056102116 0.067995675 -0.011745073 0.029454578 -0.036996584 0.026665827
-0.036653046 -0.012416772 0.032959748 -0.009690387 0.019971095 0.0027239514 -0.026288174 -0.003262
-0.04713754 0.0085370615 0.03798452 0.03541899 0.023063393 -0.05274018 0.03661235 -0.052853476
-0.015189367 -0.030203179 -0.008087357 0.0243951 -0.062296204 -0.019580232 -0.0553745 -0.077644795
0.041387007 -0.03624553 0.041974146 -0.030335391 0.015726738 0.033410825 0.023087628 0.04168745
0.026795102 -0.033927757 -0.061818417 0.03533038 0.0024483567 0.02043081 0.021172004 -0.0324913
0.02827392 0.0056302464 0.041841812 0.0010161143 0.03383701 0.109671935 0.020505166 -0.041251864
0.02292089 0.008961303 -0.05197376 0.06329418 0.067155525 0.029322468 -0.005268485 -0.009874413

onnx::Conv_101 f4 [32]
00000000: bc25 803c 7f14 0e3d b11c a2bd bbe0 95bc
00000010: 2808 863d 796d 193e 9651 92bc 2460 13bd
00000020: f9e8 06bd 1854 043d e746 1a3d f065 3e3c
00000030: decf 723d 84a4 dbbd 1825 5e3c 82ee 463d
00000040: 0866 e73d 4c75 e13d 0171 193e 54b2 bbbc
00000050: 68cd d53c 0cd8 8f3d e8fb 7b3c 173b 223e
00000060: f152 b2bd 167e 95bd ccef 49bd 1a63 ac3c
00000070: 04f2 4f3d 70b4 4b3c 1811 91bc 3846 4c3d
0.015642993 0.034687515 -0.07915629 -0.018295636 0.065445244 0.14983167 -0.017861169 -0.03598036
-0.032937024 0.03230676 0.037665274 0.0116209835 0.05928027 -0.10724738 0.0135586485 0.048567303
0.11298758 0.11008701 0.14984514 -0.022912182 0.026098922 0.070236295 0.015379883 0.15842853
-0.08707226 -0.072994396 -0.049300954 0.021043349 0.050767913 0.012433156 -0.017708346 0.049871653
